models/model_1742131837.pth (torch, 324598 bytes, 10 tensors)

weight f4 [128, 100]
0	0x3d9c93d7	0.07645386
1	0x3da9fc51	0.08300079
2	0xbcbfea80	-0.023427248
3	0x3dbc21b1	0.091861136
4	0xbcb37d58	-0.021910354
5	0x3ca54e94	0.02017907
6	0xbd476a73	-0.048685502
7	0x3d708d0e	0.05872827
8	0x3db48a3d	0.08815429
9	0xbd963f3e	-0.07336281
10	0x3db202e9	0.08691961
11	0x3c995228	0.018715933
12	0x3d974edd	0.07388089
13	0x3c5de3b0	0.013543054
14	0x3d458116	0.04821881
15	0xbc6753d0	-0.014119104
16	0x3d9de09f	0.07708859
17	0x3c722b90	0.014780894
18	0xbd3f37b7	-0.046683993
19	0x3cd0d00c	0.02548983
20	0xbd3cb7bd	-0.046073664
21	0xbc4023d0	-0.011727288
22	0xbd265cca	-0.040615834
23	0x3d87dbbf	0.0663371
24	0xbda1a9bb	-0.07893702
25	0xbd3cd470	-0.046101034
26	0xbce75248	-0.028237477
27	0xbd7647fd	-0.060127247
28	0x3c1aa328	0.009438314
29	0xbdca46d5	-0.098767914
30	0x3db8f4ed	0.09031091
31	0xbdadf89a	-0.084946826
32	0x3d9e1c79	0.077202745
33	0x3c8854a0	0.016641915
34	0xbd04ffbc	-0.03247045
35	0x3d7d1cc2	0.061795004
36	0x3c7f5890	0.01558508
37	0x3da5788d	0.08079634
38	0x3c331c00	0.010931969
39	0xbd012d46	-0.031537317
40	0x3cdc1b0c	0.026868366
41	0xbcde2674	-0.027117945
42	0x3d2c621e	0.04208576
43	0x3db6d999	0.08928222
44	0x3d6cc5f2	0.057805963
45	0xbd3310dd	-0.043717254
46	0x3d6c7296	0.057726465
47	0x3c92938c	0.017892621
48	0x3d50025e	0.050783508
49	0xbd79a73d	-0.060950506
50	0xbdcabbb7	-0.09899085
51	0xbd1e40d7	-0.038636055
52	0xbd9d1616	-0.07670228
53	0x3da80bdf	0.08205389
54	0x3cebf48c	0.028803132
55	0x3d29a972	0.04142136
56	0x3d018a62	0.031626113
57	0xbae40340	-0.0017395988
58	0x3da04737	0.07826083
59	0xbd918360	-0.07105136
60	0x3bce51d0	0.006296374
61	0xbd8bc8c4	-0.068254024
62	0x3cfc9a1c	0.030835204
63	0xbd0d0f1a	-0.03443823
64	0x3cfb0424	0.030641623
65	0xbcaaac60	-0.020834148
66	0x3da9dc05	0.082939185
67	0xbd72c54d	-0.059270192
68	0xbd7448dd	-0.0596398
69	0xbd744ca3	-0.0596434
70	0x3db834b5	0.08994428
71	0x3d087fea	0.033325113
72	0x3dc511a7	0.096225075
73	0xbda9043e	-0.08252762
74	0xbdcb22e0	-0.09918761
75	0xbda03a65	-0.07823638
76	0xbd89c448	-0.06726891
77	0x3d25e78a	0.040504016
78	0x3d12aafa	0.035807587
79	0x3daa2c5f	0.08309244
80	0xbd538720	-0.051642537
81	0xbd8b9d55	-0.06817118
82	0x3d595326	0.053057812
83	0xbd258fea	-0.04042045
84	0x3d789892	0.060692377
85	0xbcc2658c	-0.023730062
86	0x3d6a4f5e	0.057204597
87	0xbd9f1f80	-0.0776968
88	0xbd4eb45d	-0.050464977
89	0x3cf9c13c	0.03048765
90	0x3cad2f60	0.021140754
91	0xbcd0dcb8	-0.025495872
92	0x3d74266a	0.059606947
93	0x3d8b3995	0.06798092
94	0xbd9483f8	-0.072517335
95	0xbd5aac23	-0.05338682
96	0x3dbb870f	0.0915662
97	0xbd0a365c	-0.033743247
98	0xbd1135bc	-0.035451636
99	0xbdc629d3	-0.09675946
100	0xbd836ded	-0.06417451
101	0x3ce688a1	0.028141322
102	0xbc8766ff	-0.016528605
103	0xbdb303d1	-0.08740962
104	0xbb79c1be	-0.0038109864
105	0xbd8c6693	-0.06855502
106	0xbdb8fe09	-0.09032828
107	0xbd5c9224	-0.053850308
108	0xbdde6c53	-0.10860505
109	0xbd9440ac	-0.07238898
110	0x3def1d52	0.11675514
111	0x3c88f86e	0.016720023
112	0x3c114f6c	0.008869033
113	0xbdc0737a	-0.093970254
114	0xbd91d0a8	-0.07119876
115	0xbd34ecdb	-0.044171195
116	0xbc46e727	-0.012140072
117	0xbdcb53d8	-0.09928101
118	0xbd8d8fad	-0.069121696
119	0xbd8064ca	-0.06269224
120	0xbb4905cf	-0.0030673628
121	0xbd5361cf	-0.05160695
122	0xbb6b11bc	-0.0035868725
123	0xbd40839f	-0.047000524
124	0xbd90c3dd	-0.07068608
125	0xbd94f762	-0.07273747
126	0xbd09a7b4	-0.0336072
127	0xbda65c76	-0.08123104
128	0x3dd72dae	0.105067596
129	0x3b724256	0.0036965809
130	0x3d92778e	0.071517095
131	0x3cfc9b90	0.030835897
132	0xbdbfa889	-0.093583174
133	0x3d631b72	0.055446096
134	0xbcc11fbb	-0.0235747
135	0xbd446946	-0.04795196
136	0xbd3884b9	-0.04504845
137	0xbdddbf1d	-0.108274676
138	0x3cedc4a6	0.029024433
139	0xbca6c6ac	-0.020358406
140	0x3d3cfa59	0.046137188
141	0xbdde6dec	-0.1086081
142	0x3d744cbd	0.059643496
143	0xbd53bdbf	-0.051694628
144	0xbcc81bf6	-0.024427395
145	0x3c70cb93	0.014696973
146	0x3d23a834	0.039955333
147	0x3df224b8	0.1182341
148	0x3dc7c94b	0.097551905
149	0xbd8eb49f	-0.069680445
150	0x3d04f785	0.032462616
151	0xbd108326	-0.035281323
152	0xbbd8fa6e	-0.0066216504
153	0xbd933c93	-0.07189288
154	0x3dc1a815	0.09455887
155	0xbd9d5e2e	-0.07683979
156	0x3d9019dc	0.07036182
157	0x3d5e3270	0.05424732
158	0x3cda444d	0.026643896
159	0xbd407770	-0.046988904
160	0x3d9ba205	0.07599262
161	0x3c59f557	0.0133031225
162	0x3b77a583	0.0037787862
163	0xbd966400	-0.07343292
164	0x3d30a33e	0.04312443
165	0xbccd7c62	-0.025083724
166	0xbd3bab6f	-0.04581779
167	0x3da30812	0.07960524
168	0x3c81148f	0.015756873
169	0xbd96009e	-0.073243365
170	0xbd3377fa	-0.04381559
171	0xbab82fc6	-0.0014052324
172	0x3d835902	0.06413461
173	0xbd3d1824	-0.0461656
174	0xbd900479	-0.07032103
175	0xbccb2153	-0.024796164
176	0xbd83a9e7	-0.06428891
177	0x3d8e4148	0.06946045
178	0x3db37de8	0.08764249
179	0xbdc03bcb	-0.093864046
180	0x3c1da337	0.009621433
181	0x3d304952	0.043038674
182	0x3cb5e0e6	0.022201966
183	0xbd3b0ada	-0.045664646
184	0x3ce43933	0.027859306
185	0x3d750dde	0.059827678
186	0x3d017e57	0.031614628
187	0xbc8bd234	-0.017068006
188	0xbcb13a1c	-0.021634154
189	0x3caa3661	0.020777883
190	0xbc712673	-0.01471864
191	0xbc19485d	-0.009355632
192	0x3d65e015	0.056121904
193	0x3de1bb14	0.110220104
194	0xbbc1c922	-0.0059138695
195	0xbcee25d4	-0.029070772
196	0x3c607d27	0.013701714
197	0xbbf4b50e	-0.0074678725
198	0x3cd3c06c	0.02584859
199	0x3cf3dfe4	0.029769845
200	0xbe977862	-0.29584032
201	0xbd9e5364	-0.07730749
202	0x3cb556a4	0.02213604
203	0x3ea76c12	0.3269964
204	0xbe04ea77	-0.12980066
205	0xbd76de13	-0.06027038
206	0x3e1574bc	0.14595312
207	0xbd6fdae0	-0.058558345
208	0xbe7ca222	-0.24671224
209	0xbec204ad	-0.37894192
210	0x3ebe486f	0.37164637
211	0xbedb760a	-0.42863494
212	0xbe61db6f	-0.22056364
213	0xbe1f85e8	-0.15578425
214	0x3cee8919	0.029118108
215	0x3eda5b2a	0.42647678
216	0x3b881700	0.0041531324
217	0x3d9f14ea	0.07767661
218	0xbd3c62b6	-0.045992576
219	0x3db128c1	0.08650351
220	0x3e8c89be	0.2744884
221	0x3e1e5204	0.15460974
222	0xbed5b38b	-0.41738543
223	0xbe42a2c6	-0.19007406
224	0xbf07a10e	-0.52980125
225	0xbe4bb655	-0.19893773
226	0xbd9de441	-0.077095516
227	0x3e23664f	0.15956996
228	0x3f5d1525	0.8636039
229	0xbf179312	-0.59208786
230	0xbe550021	-0.2080083
231	0x3d2abf8a	0.041686572
232	0xbee3d5c5	-0.4449903
233	0xbd62b5e1	-0.055349234
234	0x3ebd3fb1	0.36962655
235	0xbebc234a	-0.36745673
236	0x3f9f1074	1.2426896
237	0xbe37822c	-0.1792075
238	0x3e3160ab	0.17322032
239	0xbdf732d3	-0.12070241
240	0x3ed0c724	0.40776932
241	0x3f2dced3	0.67893714
242	0xbf088c02	-0.53338635
243	0xbeacd6b5	-0.33757558
244	0xbd69350b	-0.05693535
245	0xbd90719c	-0.07052919
246	0xbe3f071c	-0.18655056
247	0x3f6b3f27	0.9189324
248	0x3f0a44ae	0.54011047
249	0x3eb63bdc	0.35592544
250	0x3dede9c0	0.1161685
251	0xbe4280ac	-0.18994397
252	0xbf11d0f3	-0.56959456
253	0xbdb4899f	-0.08815312
254	0x3d8e985e	0.069626555
255	0x3e569f6a	0.20959249

bias f4 [128]
0	0xbd8c474d	-0.06849537
1	0xbc07b66e	-0.008283241
2	0xbb40e167	-0.0029431225
3	0x3bba5de4	0.005687462
4	0xbda4503a	-0.080231145
5	0xbd403e97	-0.04693469
6	0xbc098b94	-0.008395094
7	0xbc592305	-0.013252978
8	0xbd248b00	-0.040171623
9	0xbdb9f84f	-0.09080564
10	0xbc3716ed	-0.0111748995
11	0xbcad5098	-0.021156594
12	0xbd52a01d	-0.051422227
13	0xbdbc9a5b	-0.092091285
14	0x3c0785ad	0.008271617
15	0x3c8e91e3	0.017403549
16	0xbda60546	-0.081064746
17	0xbc87a20f	-0.016556768
18	0xbc825638	-0.015910253
19	0xbc922ad2	-0.017842684
20	0xbd5b854a	-0.05359391
21	0xbd14346c	-0.036182806
22	0xbd86b488	-0.06577402
23	0x3a0adb5e	0.00052969705
24	0xbd323bdd	-0.04351412
25	0xbc3d0145	-0.011535947
26	0xbcb44f98	-0.02201061
27	0xbd8c3f84	-0.06848052
28	0xbcd608ff	-0.026127337
29	0xbaaca378	-0.0013171276
30	0xbbd72ff1	-0.0065669944
31	0xbbe4294e	-0.0069629317
32	0x392decd5	0.00016586792
33	0xbcc1d738	-0.023662195
34	0xbcfb6a98	-0.030690476
35	0xbd61d853	-0.055137943
36	0xbdb630b2	-0.08896007
37	0xbd9c6050	-0.07635558
38	0xbd1bfd37	-0.03808328
39	0x3d59330e	0.053027205
40	0xbdc36f3f	-0.09542703
41	0xbd80fe88	-0.06298548
42	0xbd9f508a	-0.077790335
43	0xbd8f7f48	-0.07006699
44	0xbc9e6768	-0.019336417
45	0xbda1fe98	-0.07909888
46	0xbd928b5e	-0.071554884
47	0xbd6f99b7	-0.058496203
48	0xbabcc3ea	-0.0014401649
49	0xbd0009b4	-0.031259254
50	0xbd885e05	-0.06658558
51	0x3d07425a	0.033022262
52	0xbc00cd07	-0.007861382
53	0xbd95824e	-0.07300244
54	0xbd18ee50	-0.037336648
55	0xbb8af399	-0.004240465
56	0x39f75c85	0.00047180444
57	0xbd827a6c	-0.06371006
58	0xbd501bb0	-0.050807655
59	0xbd20a9c3	-0.039224397
60	0xbc0e07d7	-0.008668861
61	0xbda43d6a	-0.08019526
62	0xbbfc37a3	-0.007697062
63	0x3c56e2ab	0.013115565
64	0x3aa59095	0.001263159
65	0xbbc4a954	-0.006001631
66	0x3bba28be	0.0056811264
67	0xbd05ecf4	-0.03269668
68	0xbd1ac543	-0.03778578
69	0xbd8595f8	-0.06522745
70	0xbba870f9	-0.0051404205
71	0xbc046bd8	-0.008082353
72	0xbc79b3e0	-0.015240639
73	0xbc99b4f7	-0.018763049
74	0xbcce8968	-0.025212005
75	0xbd096f4a	-0.0335534
76	0xbd2b0413	-0.041751932
77	0xba98214a	-0.0011606601
78	0xbbda99ea	-0.00667118
79	0xbd5ad423	-0.053424966
80	0xbc60cf66	-0.013721323
81	0x3ba17658	0.0049274378
82	0xbcbbae6c	-0.02291032
83	0xbaab03b2	-0.0013047366
84	0xbdb99da3	-0.0906327
85	0xbd9187e2	-0.07105996
86	0xbd16442c	-0.036686108
87	0xbc065d77	-0.008200995
88	0xbcb2cbd8	-0.021825716
89	0x3c5acf76	0.013355127
90	0xbdbf087f	-0.093277924
91	0xbc5505e9	-0.013001897
92	0xbdc60457	-0.096687965
93	0xbd0cb4f0	-0.034352243
94	0xbc9e5001	-0.019325258
95	0xbd08e466	-0.033420943
96	0xbd329c6d	-0.04360621
97	0x3c1c3839	0.009534889
98	0xbd5b728a	-0.05357603
99	0xbc0ad888	-0.008474477
100	0xbd12f2ca	-0.035876073
101	0xbb0fd430	-0.0021946542
102	0xbd7b2720	-0.06131661
103	0xbd565b4a	-0.052333154
104	0xbd880c1a	-0.06642933
105	0xbc914d14	-0.017736949
106	0x3c60aa1c	0.013712432
107	0xbd09ff69	-0.033690844
108	0xbda282eb	-0.07935127
109	0xbd02216f	-0.031770166
110	0x3c445810	0.011983886
111	0x3cfa9564	0.030588813
112	0xbc345a82	-0.011007907
113	0xbb63f366	-0.0034782528
114	0xbce5cc76	-0.028051596
115	0xbc4fa55b	-0.012673701
116	0xbc3389fe	-0.010958193
117	0xbc90e120	-0.017685473
118	0xbca3abb0	-0.019979328
119	0xbcdc16cc	-0.02686634
120	0x3cc80796	0.02441768
121	0xbd115a78	-0.03548667
122	0xbc01a8a4	-0.007913742
123	0xbda4e56b	-0.080515705
124	0xbcf2be78	-0.029631838
125	0xbb76dd42	-0.00376685
126	0xbd321359	-0.043475483
127	0xbc1e2e0f	-0.009654536

weight f4 [256, 128]
0	0x3d2a5c6e	0.041592054
1	0x3d248f14	0.040175512
2	0xbe0a4676	-0.13503441
3	0xbea49ea8	-0.32152295
4	0x3d3b853e	0.045781367
5	0xbd16b156	-0.036790214
6	0xbd9cd377	-0.07657521
7	0xbdb6fe34	-0.08935204
8	0xbd8c4f4a	-0.06851061
9	0xbcf74ba0	-0.030187428
10	0xbd4575e5	-0.048208136
11	0xbe81e7fc	-0.25372303
12	0xbc3bbe80	-0.011458993
13	0xbd3d4133	-0.046204757
14	0xbe5ae6f7	-0.21377169
15	0x3e23feca	0.16015163
16	0x3d3fedba	0.046857573
17	0xbf871476	-1.0553119
18	0xbeca6e2c	-0.3953718
19	0xbf057c33	-0.5214264
20	0x3d45d7e6	0.0483016
21	0xbca29348	-0.01984562
22	0x3d19f0d6	0.037583195
23	0xbe82608d	-0.25464287
24	0xbca56ea8	-0.020194367
25	0xbd055a9a	-0.032557108
26	0x3da99c75	0.08281795
27	0xbd2d8e9f	-0.042372342
28	0xbeb85d36	-0.36008614
29	0xbe991245	-0.2989675
30	0xbf40f672	-0.75376046
31	0xbef50f28	-0.47863126
32	0xbee9dded	-0.45677128
33	0xbd36f332	-0.044665523
34	0x3b5320a0	0.003221549
35	0xbd8e9c58	-0.06963414
36	0xbcaeca08	-0.02133657
37	0x3d8c6f13	0.06857123
38	0x3c509c50	0.01273258
39	0x3da0e1b3	0.07855549
40	0x3d8945d1	0.067027695
41	0x3d441442	0.04787088
42	0x3d4b2b52	0.04960186
43	0x3d2bcb06	0.041941665
44	0xbde07c2b	-0.10961183
45	0xbda12947	-0.07869201
46	0xbd5663b2	-0.05234117
47	0xbd573239	-0.05253813
48	0xbea00a7a	-0.31257993
49	0x3d912ab3	0.07088222
50	0x3da75581	0.081706055
51	0xbe6c49af	-0.23074983
52	0xbf50621d	-0.8139971
53	0x3d7954e6	0.06087198
54	0x3b915b90	0.004435964
55	0x3d04d1f9	0.032426808
56	0xbea006bc	-0.31255138
57	0x3dae5d1f	0.08513855
58	0x3d275e6e	0.04086154
59	0x39084c00	0.00012998283
60	0xbee00a87	-0.43758032
61	0x3c7da240	0.015480578
62	0xbc091cdc	-0.008368697
63	0xbf00e39b	-0.503473
64	0xbef5ba5b	-0.4799374
65	0xbec94a2c	-0.393144
66	0xbe87fc82	-0.26559836
67	0xbd69705b	-0.056991916
68	0x3d478522	0.04871095
69	0xbd4764e1	-0.04868019
70	0x3ce79f93	0.028274333
71	0x3b47d240	0.003049031
72	0xba417fd7	-0.00073814153
73	0xbd2362f0	-0.039889276
74	0xba2ebe80	-0.000666596
75	0x3d32f092	0.043686457
76	0xbbe79fc0	-0.007068604
77	0xbe9b9f82	-0.30395132
78	0xbe834b92	-0.25643593
79	0xbd53fc3c	-0.05175422
80	0xbde84ca2	-0.113427415
81	0xbecc6100	-0.39917755
82	0x3d36a12a	0.04458729
83	0xbeb2f711	-0.34954122
84	0xba02e500	-0.000499323
85	0xbd2c645b	-0.042087894
86	0xbd2286f5	-0.039679486
87	0x3a4124e1	0.0007367861
88	0x3d395446	0.045246385
89	0xbf0667bc	-0.52502036
90	0x3d8e42b3	0.069463156
91	0xbe13d8eb	-0.14438216
92	0xbc94da90	-0.018170625
93	0x3d910d7d	0.07082651
94	0xbcdb6728	-0.026782587
95	0x3d44e676	0.048071347
96	0xbc0e9730	-0.008703038
97	0xbec3b9f7	-0.38227817
98	0x3c3c5878	0.011495702
99	0xbd55ce3e	-0.05219864
100	0xbd6e7cae	-0.058224373
101	0xbf0e83be	-0.5566977
102	0x3cb1efcc	0.02172079
103	0xbc60ea70	-0.013727769
104	0xbc8a5678	-0.016886935
105	0xbd1647ef	-0.036689695
106	0xbe035e12	-0.12828854
107	0xbe00e8cf	-0.1258881
108	0xbd99eabe	-0.07515477
109	0xbe86bab5	-0.2631432
110	0xbe18082e	-0.1484687
111	0xbf427635	-0.7596162
112	0xbef2fe92	-0.47459847
113	0xbe7e1ade	-0.24814937
114	0xbe651b8a	-0.22373787
115	0x3cc87164	0.024468131
116	0x3d50d865	0.05098762
117	0x3d142ed2	0.036177464
118	0xbeaaa739	-0.33330706
119	0xbd9229c2	-0.07136871
120	0xbc070d11	-0.008242861
121	0xbd815f59	-0.06317014
122	0xbe8c2c1e	-0.2737741
123	0x3d689c82	0.056789882
124	0xbe29f854	-0.16598636
125	0xbed2a14b	-0.41138682
126	0xbe5ddb52	-0.21665695
127	0xbb027b5c	-0.0019909954
128	0x3bc46f10	0.005994685
129	0xbdc696fd	-0.096967675
130	0xbcff92be	-0.031197902
131	0x3ca2483e	0.019809838
132	0x3daecf07	0.08535581
133	0x3c06ee88	0.008235581
134	0x3d10a92f	0.035317596
135	0xbc2b2d8f	-0.010447874
136	0xbd8edbca	-0.06975515
137	0xbb4333c0	-0.0029785484
138	0xbd14b138	-0.03630182
139	0xbd0c8fd8	-0.034316868
140	0xbd0cd25c	-0.0343803
141	0x3d875287	0.06607538
142	0xbdc78b41	-0.097433574
143	0xbd9ab8f8	-0.07554811
144	0xbce0d4f8	-0.027445301
145	0x3d570bbd	0.05250143
146	0xbd253848	-0.040336877
147	0x3c3e9ebf	0.011634528
148	0x3d317fce	0.043334775
149	0x3d9af019	0.07565326
150	0xbca65e10	-0.020308524
151	0xbb520dd5	-0.0032051702
152	0xbd30b3d2	-0.04314024
153	0xbcb26c6e	-0.021780219
154	0xbd9b2153	-0.075747155
155	0xbd93b384	-0.07211974
156	0x3a8bdc41	0.0010670499
157	0xbdb7b88c	-0.089707464
158	0x3cbc6b0c	0.023000263
159	0x3d2d950b	0.042378467
160	0x3bfee418	0.0077786557
161	0x3d0a972c	0.033835575
162	0xbda47720	-0.08030534
163	0xbd276b82	-0.04087401
164	0xbd82b399	-0.06381912
165	0xbdaba562	-0.08381154
166	0x3d19e93e	0.037575953
167	0xbb0e174a	-0.0021681362
168	0x3dac3c71	0.08409966
169	0xbcc77de0	-0.024352014
170	0xbd6fb48c	-0.058521792
171	0xbd9bd360	-0.07608676
172	0xbc8f9f30	-0.017531961
173	0xbd46699a	-0.048440553
174	0x3c8074f8	0.015680775
175	0x3d6f7b42	0.058467157
176	0x3d592842	0.05301691
177	0xbc6c2f48	-0.01441557
178	0xbd6b6b90	-0.057475626
179	0xbd917eb0	-0.07104242
180	0x3d103641	0.03520799
181	0x3cbb6198	0.022873685
182	0x3bb76360	0.005596563
183	0xbddeb16b	-0.108736835
184	0x3cc65bfd	0.024213785
185	0x3d65080e	0.055915885
186	0x3c1573b0	0.00912182
187	0xbc827950	-0.015926987
188	0xbd841ee5	-0.06451205
189	0x3a3d3f80	0.000721924
190	0xbc936957	-0.017994566
191	0x3b8787f4	0.00413608
192	0xbcdc1b5d	-0.026868517
193	0x3d773ff8	0.06036374
194	0x3d0dc5d8	0.034612507
195	0x3ca37950	0.019955307
196	0xbda0b576	-0.07847111
197	0xbd2cdd8f	-0.042203482
198	0x3c3df4a0	0.011593968
199	0xbd69f8a9	-0.057121906
200	0x3c1a66c2	0.009423913
201	0xba88dd6d	-0.0010441967
202	0xbd639d74	-0.05557008
203	0x3c8fa1a8	0.017533138
204	0xbc3b4c10	-0.011431709
205	0x3d322188	0.04348901
206	0xbd33534f	-0.04378062
207	0x3d9df97f	0.07713603
208	0x3d5da683	0.054113876
209	0xbd574ced	-0.052563597
210	0x3c72fea8	0.014831223
211	0xbd3d80bd	-0.046265353
212	0x3d90f48d	0.07077894
213	0x3d2d946e	0.04237788
214	0x397e1000	0.00024229288
215	0x3d00d699	0.031454656
216	0xbd91594d	-0.07097111
217	0xbd37edeb	-0.04490463
218	0x3c93ce10	0.018042594
219	0xbdd9e6c5	-0.10639719
220	0x3d9e37e5	0.07725505
221	0x3bedf500	0.0072618723
222	0x3d630e72	0.055433698
223	0xbcd2bdd8	-0.02572529
224	0x3bac7370	0.0052627847
225	0xbd3f60ec	-0.04672329
226	0xbd146f00	-0.03623867
227	0xbd5c9df3	-0.05386157
228	0x3d7a643a	0.06113074
229	0x3d6a2dc2	0.057172544
230	0x3cd05c68	0.025434688
231	0x3d4a292a	0.049355663
232	0x3d1d7bf6	0.038448296
233	0x38e85400	0.00011078268
234	0xbdb51c35	-0.08843271
235	0xba830465	-0.0009995817
236	0xbcf8ce74	-0.030371882
237	0x3c39e974	0.0113471635
238	0xbda5095e	-0.08058427
239	0xbcec402e	-0.028839197
240	0xbd71a7ef	-0.058998045
241	0xbdd54157	-0.10412853
242	0xbdd5780b	-0.10423287
243	0x3d700dea	0.05860702
244	0xbc8ddec7	-0.017318143
245	0xbd9c0bee	-0.07619463
246	0xbc00b34d	-0.007855249
247	0xbbb5c4f0	-0.0055471584
248	0x3d4d5090	0.05012566
249	0x3d773847	0.060356405
250	0xbd3d8060	-0.046265006
251	0xbd593e09	-0.053037677
252	0xbd95eecc	-0.073209375
253	0xbd3bb2e8	-0.045824915
254	0xbd9023ef	-0.07038104
255	0x3d700321	0.058596734

bias f4 [256]
0	0x3dbff8d0	0.09373629
1	0xbbde5a2d	-0.006785652
2	0xbced2dba	-0.028952468
3	0xbd8a4951	-0.06752265
4	0xbc30871d	-0.010774401
5	0xbcac31a2	-0.02101976
6	0x3a3c4564	0.0007181971
7	0xbdb06030	-0.08612096
8	0xbbf19955	-0.007373015
9	0xbd03584c	-0.03206663
10	0x3d9a5563	0.075358175
11	0xbca2b50d	-0.019861722
12	0xbd4de0df	-0.050263282
13	0xbc9cdba0	-0.019147694
14	0xbc878680	-0.016543627
15	0xbd9a36c8	-0.0752998
16	0xbb7915a5	-0.0038007286
17	0xbd97ea8a	-0.07417782
18	0xbdb29153	-0.08719125
19	0xbdab73f1	-0.083717234
20	0xbccde610	-0.025134116
21	0xbd902c06	-0.07039647
22	0xbda7f984	-0.08201888
23	0x3c976982	0.018482927
24	0xbd2c7fa5	-0.04211392
25	0xbd2847c3	-0.041084062
26	0xbd32d867	-0.04366341
27	0xbd1a48af	-0.037666973
28	0xbc48ca58	-0.012255274
29	0x3dac91a3	0.084262155
30	0xbd9730ec	-0.07382378
31	0xbd586d9a	-0.0528389
32	0xbc8d37b1	-0.01723847
33	0x3e16c9cb	0.14725415
34	0xbdb1ddf2	-0.08684911
35	0xbda1efc1	-0.079070576
36	0xbd03e804	-0.03220369
37	0xbd053ff5	-0.032531697
38	0xbd02adad	-0.03190391
39	0xbc3a9b90	-0.011389628
40	0xbd4852e8	-0.04890719
41	0xbc7121fa	-0.014717573
42	0xbc05ea3f	-0.008173524
43	0xbd0af7bc	-0.033927664
44	0xbcdff556	-0.027338665
45	0x3dc02b7d	0.09383295
46	0xbdb14d79	-0.08657355
47	0xbd594e22	-0.05305303
48	0xbda099c7	-0.07841831
49	0xbcff8854	-0.031192936
50	0xbd891b21	-0.066946276
51	0xbd4c8f54	-0.049941376
52	0xbcae0403	-0.021242147
53	0xbc8ffcc0	-0.017576575
54	0xbc281409	-0.010258683
55	0xbd6e9330	-0.058245838
56	0xbd88b56c	-0.066752285
57	0x3cf520e9	0.02992292
58	0x3cfa863e	0.03058159
59	0xbd5951ca	-0.053056516
60	0xbbde6f2a	-0.006788154
61	0xbc453ab0	-0.012037918
62	0xbd247ce2	-0.04015816
63	0xbc5378c5	-0.012907212
64	0xbcb06829	-0.021534042
65	0xbd3545d1	-0.044256035
66	0x3cd71d5f	0.026259122
67	0xbd4fb8d9	-0.050713394
68	0x3c8b2125	0.016983578
69	0xbdad1e85	-0.08453087
70	0xbd61b891	-0.055107657
71	0xbc919177	-0.017769558
72	0xbd60aeb7	-0.05485412
73	0xbd8c1fcf	-0.068420045
74	0xbb0c47f0	-0.0021405183
75	0xbc946940	-0.018116593
76	0xbcbfc32f	-0.0234085
77	0xbc38636d	-0.011254174
78	0xbd503813	-0.050834727
79	0xbd2e359f	-0.042531606
80	0xbda4a603	-0.08039477
81	0xbdaeafe7	-0.085296445
82	0xbda2f390	-0.07956612
83	0xbd92711a	-0.07150479
84	0xbc165b99	-0.009177112
85	0xbd1aa4a5	-0.037754674
86	0x3c41fcb2	0.011840032
87	0xbd1728d5	-0.036904175
88	0xbb008a34	-0.0019613625
89	0x3c5d8b52	0.013521986
90	0x3c37449d	0.011185792
91	0xbd0ec1f9	-0.034852955
92	0x3bc80cb0	0.006105028
93	0xbda83294	-0.08212772
94	0xbcb38da2	-0.021918122
95	0xbdb3fd96	-0.08788602
96	0xbd9157ca	-0.070968226
97	0x3d922c99	0.071374126
98	0x3c2d1d03	0.010565999
99	0xbb8f57ad	-0.0043744654
100	0xbd0efa17	-0.034906473
101	0xbdb0a20f	-0.0862466
102	0xbd827840	-0.06370592
103	0xbb9b266a	-0.004734804
104	0x3cec9bea	0.02888294
105	0xbbffa712	-0.0078018988
106	0x3c50d60d	0.012746346
107	0xbd49ea92	-0.04929597
108	0xbc016cc7	-0.00789947
109	0xbd197657	-0.037466373
110	0xbd870dfe	-0.06594466
111	0xbd53a1c1	-0.051667932
112	0xb9b90a41	-0.0003529359
113	0xbd88447d	-0.06653688
114	0xbd6fcb90	-0.05854374
115	0xbd5509c8	-0.05201128
116	0x3b43ab82	0.0029856865
117	0xbc9add4f	-0.018904356
118	0xbd0d1e4c	-0.03445272
119	0xbd3f4977	-0.04670092
120	0x3bf57306	0.0074905185
121	0x3bfb59c6	0.007670614
122	0xbadd9ac1	-0.0016907082
123	0x3d9b80a5	0.07592896
124	0xbd459f5b	-0.048247676
125	0xbcd8caa1	-0.026463808
126	0xbd1559c0	-0.036462545
127	0xbcc9d8dc	-0.02463954
128	0xbdb2b954	-0.08726755
129	0xbb75e9e8	-0.0037523452
130	0xbda90566	-0.08252983
131	0xbd6ddbd4	-0.058070973
132	0xbd31aaa7	-0.043375637
133	0xbd869182	-0.06570722
134	0xbd4842f4	-0.048891976
135	0xbc9c599c	-0.019085698
136	0xbdaecff7	-0.0853576
137	0xbba056e5	-0.004893171
138	0xbd9a9bca	-0.07549246
139	0xbd7daa2a	-0.06192986
140	0xbc839883	-0.016063934
141	0xbc888d7a	-0.016669024
142	0xbd3f2416	-0.046665274
143	0xbd40c49b	-0.047062498
144	0xbce51e9e	-0.027968701
145	0x3dae11c3	0.084994815
146	0xbd8b7969	-0.068102665
147	0xbc570830	-0.013124511
148	0xbc999a67	-0.018750383
149	0xbd307899	-0.04308376
150	0xbd24498f	-0.040109213
151	0x3a2e0bab	0.0006639312
152	0x3cbeb328	0.023278788
153	0xbd335466	-0.04378166
154	0xbd4c1257	-0.049822178
155	0x3d22bf51	0.039733235
156	0xbcf39d18	-0.029737994
157	0xbce8d2d1	-0.028420838
158	0xbdaaa087	-0.083313994
159	0xbd1b8abb	-0.0379741
160	0xbd43c920	-0.04779923
161	0x3cf8dccd	0.030378724
162	0xbcfd3064	-0.030906864
163	0xbcf746d4	-0.03018514
164	0xbc24ff40	-0.010070622
165	0xbd51427c	-0.051088795
166	0xbdb1bd7f	-0.08678722
167	0xbdb2d50f	-0.08732044
168	0xbd3305d8	-0.043706745
169	0xbd7e1d9a	-0.06203995
170	0xbb76d874	-0.0037665637
171	0xbda5deca	-0.08099134
172	0xbd649743	-0.055808317
173	0xbcc87394	-0.024469174
174	0xbdb863ea	-0.09003432
175	0xbd9a380f	-0.075302236
176	0x3dd0cc38	0.10195202
177	0xbcd40876	-0.02588294
178	0xbd7fa756	-0.062415443
179	0xbbe3a880	-0.006947577
180	0x3b3c66df	0.002874784
181	0xbd54cb7a	-0.051951863
182	0xbaea9088	-0.0017895857
183	0xbba877c7	-0.0051412317
184	0xbc40193f	-0.011724769
185	0xbd85697c	-0.0651426
186	0x3dd1c7ca	0.10243185
187	0xbdafcede	-0.08584379
188	0xbd621d73	-0.055203866
189	0x3dace465	0.08442
190	0xbd7bc4d6	-0.061467014
191	0xbcb3e5ac	-0.021960102
192	0xbda28099	-0.07934684
193	0x3db143a2	0.08655478
194	0xbcf61220	-0.03003794
195	0x3ce126b8	0.027484283
196	0xbd2373a4	-0.039905205
197	0xbc69df76	-0.014274469
198	0xbd8ae428	-0.067817986
199	0xbda642b8	-0.08118194
200	0xbda33b40	-0.079702854
201	0xbc592a9f	-0.013254791
202	0x3da4292f	0.08015668
203	0xbc4a1878	-0.012334935
204	0x3cac41bf	0.021027444
205	0xbd912188	-0.07086474
206	0xbd72e238	-0.05929777
207	0x3d19a8c2	0.037514456
208	0xbd86446a	-0.06556018
209	0xbcdfa4d8	-0.027300283
210	0xbda6cd78	-0.08144659
211	0xbc96b33a	-0.018396009
212	0xbd2ed7df	-0.04268634
213	0xb7f74f24	-2.9481547e-05
214	0xbc37f3ae	-0.011227531
215	0x3cb30df8	0.021857247
216	0xbdb191e6	-0.08670406
217	0x3c7086b4	0.014680553
218	0xbb861952	-0.004092374
219	0xbd82e5c6	-0.06391482
220	0xbdb7a191	-0.08966363
221	0xbc8aee63	-0.016959375
222	0x3c82211f	0.015884934
223	0xbdb07dde	-0.08617757
224	0xbd90b9c4	-0.07066682
225	0xbce5fbe7	-0.028074218
226	0xbd4403a5	-0.04785504
227	0xbcc0d239	-0.023537742
228	0x3d83814d	0.064211465
229	0xbd99a808	-0.075027525
230	0x3d6229f2	0.055215783
231	0xbda781f6	-0.08179085
232	0x3a861480	0.0010229498
233	0xbc9e9934	-0.019360162
234	0xbd2414e5	-0.04005899
235	0x3d85639b	0.06513139
236	0xbcf7a801	-0.030231478
237	0xbd0d8914	-0.034554556
238	0x3b1fbe0b	0.002437475
239	0xbb952330	-0.004551314
240	0x3c813497	0.015772147
241	0xbcd81f54	-0.026382126
242	0xbd9e6b3e	-0.077352986
243	0x3ca60c42	0.020269517
244	0xbc9169a7	-0.017750574
245	0xbc89815c	-0.016785316
246	0x3cfdc68d	0.030978465
247	0x3d0cb06e	0.034347944
248	0xbb77504d	-0.0037737072
249	0x3d7b8949	0.061410222
250	0x3c84e282	0.016221289
251	0xbdaf05d9	-0.08546037
252	0xbcabb5a4	-0.020960636
253	0xbd6a6fd2	-0.057235546
254	0xbce73f16	-0.028228324
255	0xbdb4b946	-0.088244006

weight f4 [64, 256]
0	0xbee1a434	-0.4407059
1	0xbc275745	-0.010213678
2	0x3d573cd5	0.05254825
3	0xbd1a796e	-0.03771346
4	0xba7cf824	-0.0009650013
5	0xbcf33203	-0.029686933
6	0x3dd18d73	0.102320574
7	0xbd284554	-0.04108174
8	0x3e93d6ca	0.2887481
9	0xbd051920	-0.032494664
10	0xbeb25376	-0.348293
11	0x3d1ace90	0.03779465
12	0xbc949bec	-0.018140756
13	0xbd43f405	-0.047840137
14	0xbd1a999c	-0.03774415
15	0xbd5c082e	-0.05371874
16	0x3d546aa1	0.0518595
17	0xbc9e1278	-0.019295916
18	0x3d41bd62	0.04729975
19	0xbbffda10	-0.0078079775
20	0x3c5bdc68	0.013419248
21	0x3bfdce20	0.0077455193
22	0x3d792414	0.060825422
23	0x3dd070b6	0.10177748
24	0x3ce62409	0.028093355
25	0xbd4c8660	-0.049932837
26	0x3d46e818	0.048561186
27	0xbd3be2a7	-0.04587045
28	0x3c79466c	0.015214544
29	0xbee45416	-0.44595402
30	0x3e44a177	0.19202219
31	0x3da4adc3	0.08040955
32	0x3e19f0fd	0.15033336
33	0xbdb0b2cb	-0.08627852
34	0xbd507e6e	-0.050901823
35	0xbc5d3308	-0.013500936
36	0x3c150ef6	0.009097805
37	0x3d5ae766	0.053443335
38	0xbc4853a0	-0.012226969
39	0x3d6f0aa8	0.058359772
40	0x3d868c8f	0.06569778
41	0xbdb2d50d	-0.087320425
42	0xbc7e45d6	-0.01551958
43	0x3c2cebc8	0.0105542615
44	0xbc9dfe20	-0.019286215
45	0xbf07f58e	-0.5310906
46	0xbd59b5b0	-0.053151786
47	0xbcb5c344	-0.022187836
48	0x3d670a64	0.056406394
49	0xbd5dbca4	-0.05413498
50	0xbd320a9e	-0.043467157
51	0xbc7ffe5e	-0.015624611
52	0xbccdb3d1	-0.025110157
53	0xbd5cdb6a	-0.053920187
54	0xbdafed59	-0.08590192
55	0x3c424710	0.011857763
56	0xbd2c453a	-0.042058207
57	0x3cf51d46	0.029921185
58	0xba5252de	-0.00080232124
59	0x3cd7a56c	0.026323996
60	0x3d91fbc7	0.07128101
61	0xbd32de6a	-0.04366914
62	0xbd145bb9	-0.036220286
63	0xbcc63467	-0.02419491
64	0x3c05b02f	0.008159681
65	0x3c401ae0	0.0117251575
66	0xbbaf424c	-0.0053484794
67	0xbd27283c	-0.040809855
68	0x3e8aebfe	0.27133173
69	0x3c7fc9c0	0.015612066
70	0x3d265b42	0.040614374
71	0xbd0f0a3d	-0.034921873
72	0x3cf50220	0.02990824
73	0x3cb559cc	0.022137545
74	0x3e0c5a1f	0.13706253
75	0xbdb4c230	-0.08826101
76	0x3cdc11d5	0.026863972
77	0x3d5a5509	0.053303752
78	0x3b449020	0.0029993132
79	0x3d1de09c	0.038544282
80	0x3d5bc7a4	0.05365719
81	0x3cc788e0	0.02435726
82	0xbd55adcc	-0.0521677
83	0xbd374f90	-0.04475361
84	0x3c651040	0.013980925
85	0xbd412d2c	-0.04716222
86	0x3e399fa5	0.18127306
87	0xbb958ffd	-0.004564284
88	0x3e53ec40	0.20695591
89	0x3d077551	0.033070866
90	0x3e14d45a	0.1453413
91	0x3d441d24	0.047879353
92	0x3e27210f	0.16321205
93	0x3d2dc0fc	0.042420372
94	0x3d4c3f8c	0.04986529
95	0x3aa1c0c0	0.0012340769
96	0xbd03b18e	-0.03215175
97	0xbefd6665	-0.49492183
98	0x3e8c8fa3	0.27453336
99	0xbc90de3d	-0.017684096
100	0x3cd64ba0	0.026159108
101	0xbcee0240	-0.029053807
102	0x3c595538	0.013264947
103	0x3ba8837a	0.0051426264
104	0x3e1bbb6c	0.15208215
105	0x3c8fcc80	0.017553568
106	0xbd541268	-0.051775366
107	0xbc1d4d90	-0.009601012
108	0xbcd6215c	-0.026138954
109	0x3c06622f	0.00820212
110	0x3c772f40	0.015086949
111	0x3cb8f78a	0.022578973
112	0x3e9b60fc	0.3034743
113	0xbd69866a	-0.057012953
114	0xbd6b1e96	-0.057402216
115	0x3e9a4a32	0.30134732
116	0x3e59c3e5	0.21266134
117	0x3bd86e4a	0.0066049444
118	0xbd543ba4	-0.05181469
119	0x3d563ce8	0.05230418
120	0x3e7a8aad	0.24466963
121	0x3daf1f09	0.08550841
122	0xbd919a39	-0.07109494
123	0xbf0a44e5	-0.54011375
124	0x3d6dcc0c	0.058055922
125	0x3d08b495	0.03337534
126	0x3e27a54a	0.16371647
127	0xbd40c493	-0.047062468
128	0xbd182e0c	-0.03715329
129	0xbca61c1d	-0.020277077
130	0x3d1c327c	0.038134083
131	0x3d3f5180	0.046708584
132	0xbc65cc30	-0.014025733
133	0x3ca1aea0	0.019736588
134	0x3b94a580	0.0045363307
135	0x3da615dc	0.08109638
136	0x3e0b3f8e	0.13598463
137	0x3c077af2	0.008269059
138	0x3d0a9aca	0.033839025
139	0xbd5c33a8	-0.0537602
140	0x3c93ef6b	0.0180585
141	0x3da1abe4	0.07894114
142	0xbd37e918	-0.04490003
143	0xbcfef93d	-0.031124705
144	0x3c013190	0.007885352
145	0xbeb6425d	-0.35597506
146	0xbd6baf80	-0.057540417
147	0x3ccfb8d4	0.025356688
148	0xbbf6527d	-0.0075171576
149	0xbc911c8c	-0.017713808
150	0x3cc6f3ad	0.024286116
151	0x3e07e57a	0.13271132
152	0xbdda295c	-0.1065242
153	0x3d2013b2	0.039081283
154	0xbcc84564	-0.02444715
155	0x3a528d1e	0.00080318924
156	0x3d42951c	0.047505483
157	0x3bdcdef6	0.006740446
158	0x3d039412	0.032123633
159	0x3c258d48	0.010104485
160	0x3d0c6ded	0.03428452
161	0xbe122a44	-0.14273936
162	0xbd1b7cc4	-0.037960783
163	0x3cec85ac	0.028872333
164	0x3bd2a0f0	0.0064278767
165	0xbd57f762	-0.052726157
166	0xbc096728	-0.008386411
167	0x3d62297a	0.055215336
168	0x3caa124c	0.020760678
169	0xbd6232bc	-0.055224165
170	0x3e337969	0.17526783
171	0xbd28cdf0	-0.041212022
172	0x3c617b38	0.013762288
173	0xbd745aee	-0.05965703
174	0x3e2c9625	0.1685415
175	0xbb505a80	-0.0031792223
176	0xbf10e8e6	-0.56605375
177	0xbd3bdb7a	-0.045863606
178	0xbd304028	-0.043029934
179	0x3b9377e5	0.0045003765
180	0x3ea72aab	0.3264974
181	0xbc01a2ad	-0.00791232
182	0x3e370a48	0.17875016
183	0x3cf2096b	0.029545506
184	0x3c433442	0.011914315
185	0xbd27d34c	-0.040972993
186	0xbefba878	-0.4915197
187	0x3d3185a4	0.04334034
188	0x3b406920	0.0029359534
189	0xbee2db53	-0.44307956
190	0xbd342ea6	-0.0439898
191	0x3dcc9d52	0.09990944
192	0xbc9e0a30	-0.019291967
193	0xbef7ef42	-0.48424727
194	0x3d51f065	0.05125465
195	0xbb08bb43	-0.002086357
196	0x3d39800c	0.04528813
197	0x3d90efc7	0.07076984
198	0x3d091cea	0.03347484
199	0xbd4626c0	-0.0483768
200	0xbcaf26b0	-0.021380752
201	0x3d32fb1e	0.043696515
202	0xbeb6d319	-0.3570793
203	0x3cb2c294	0.021821298
204	0x3e234a20	0.15946245
205	0xbcc05dc0	-0.023482203
206	0xbb6d4040	-0.0036201626
207	0xbf048699	-0.5176788
208	0x3c479d20	0.012183458
209	0x3d7913f8	0.06081006
210	0xbd6b68ec	-0.05747311
211	0x3d5bf3f1	0.053699438
212	0x3d6eb508	0.058278114
213	0x3e0beab1	0.13663746
214	0x3bf3c06d	0.0074387104
215	0x3d3d3d66	0.046201132
216	0x3cf7ccdc	0.030249052
217	0x3e9378fa	0.28803235
218	0xbd33b2cf	-0.043871697
219	0x3e5b9c65	0.21446379
220	0xbe8d04f4	-0.2754284
221	0x3d9c7199	0.076388545
222	0x3dcef2ec	0.101049274
223	0xbcd0a7fc	-0.025470726
224	0x3d2439ea	0.040094294
225	0x3bc90f50	0.0061358586
226	0xbc1286c8	-0.008943267
227	0xbcfc9a92	-0.030835424
228	0xbedb3477	-0.42813465
229	0xbd250d08	-0.04029563
230	0x3c343e2c	0.011001151
231	0xbe2c5b85	-0.16831787
232	0x3e55b8a3	0.20871215
233	0xbcde6d20	-0.027151644
234	0x3cf304b8	0.029665336
235	0xbed36109	-0.4128497
236	0xbd4e901c	-0.050430402
237	0xbd665eba	-0.056242682
238	0x3d07164b	0.032980245
239	0x3d614994	0.05500181
240	0x3e1773d6	0.14790282
241	0x3d1a3b2e	0.037654094
242	0x3e18d80c	0.14926165
243	0xbea60a5f	-0.32429788
244	0x3b3e0ae8	0.00289982
245	0x3d40db7a	0.04708431
246	0x3dc51ccb	0.096246324
247	0xbef0af55	-0.47008768
248	0x3df362a0	0.118840456
249	0xbd55bf11	-0.05218417
250	0x3d2ad120	0.041703343
251	0xbc96a740	-0.018390298
252	0xbd02c776	-0.031928502
253	0xbc649890	-0.013952389
254	0xbd1b1a54	-0.037866905
255	0x3b31a440	0.0027105957

bias f4 [64]
0	0x3d6cfb16	0.05785664
1	0xbd27d678	-0.040976018
2	0xbcbd72f4	-0.023126103
3	0x3e1afec0	0.15136242
4	0xbcfadb1b	-0.030622056
5	0xbd68dcee	-0.05685132
6	0xbbcb5cab	-0.0062061152
7	0xbdba917f	-0.091097824
8	0xbd3533f8	-0.044239014
9	0xbd59b254	-0.053148583
10	0xbd50235a	-0.050814964
11	0xbd5a8cab	-0.053356808
12	0x3dfcd789	0.123457976
13	0x3e15be71	0.14623429
14	0xbc9b9932	-0.018993948
15	0xbd154228	-0.036440045
16	0xbcba1405	-0.022714624
17	0xbbe80097	-0.0070801484
18	0xbcd223f9	-0.025651919
19	0xbd08002c	-0.03320329
20	0xbd238a52	-0.039926834
21	0xbc54ac8a	-0.01298059
22	0x3d4491da	0.047990657
23	0x3e9a8c58	0.301852
24	0xbceef424	-0.02916915
25	0xbd7da60e	-0.06192594
26	0xbd2cbf05	-0.042174358
27	0xbc8b2dc8	-0.016989604
28	0xbce21e60	-0.027602375
29	0xbd33d34f	-0.04390269
30	0xbd719870	-0.058983266
31	0xbd50a400	-0.050937653
32	0xbb256993	-0.002523993
33	0xbcae662b	-0.021288952
34	0xbce7381c	-0.028224997
35	0xbd453da6	-0.048154496
36	0x3d8e24bf	0.069406025
37	0xbb8f94b6	-0.0043817414
38	0x3c93119e	0.017952736
39	0xbda83b07	-0.082143836
40	0xbbdb7190	-0.0066968873
41	0xbc3f9714	-0.011693735
42	0xbd420694	-0.047369555
43	0xbcbe3656	-0.023219269
44	0xbd8e25a7	-0.06940775
45	0x3bc54cd1	0.00602112
46	0xbc13fd28	-0.009032525
47	0xbd7fe30c	-0.06247239
48	0xbd11ca0c	-0.035593078
49	0xbc4105c2	-0.011781158
50	0xbcb6bf04	-0.02230788
51	0x3d1fbd9c	0.038999185
52	0xbd52a4b1	-0.051426593
53	0xbd10ece6	-0.035382174
54	0xbd061b2c	-0.032740757
55	0xbc0d43a0	-0.00862208
56	0xbc61f3b7	-0.013791016
57	0x3d0d3aff	0.03448009
58	0x3d05917e	0.032609455
59	0xbd29db56	-0.04146894
60	0xbcefb02c	-0.02925881
61	0xbd92d6ed	-0.071699
62	0xbd6917a8	-0.056907326
63	0xbd6b1a09	-0.057397876

weight f4 [256, 64]
0	0xbe739a6d	-0.23789378
1	0xbdad0e33	-0.08449974
2	0xbda917b6	-0.082564756
3	0xbed293e3	-0.41128454
4	0x3d382dcc	0.04496555
5	0xbcf46860	-0.029834926
6	0xbd99eb80	-0.07515621
7	0xbe5289e0	-0.20560408
8	0xbdfb751f	-0.122781985
9	0x3d6cf283	0.057848465
10	0xbd63cee4	-0.05561723
11	0x3b6e5840	0.003636852
12	0xbe4b0926	-0.19827709
13	0xbed1437f	-0.40871808
14	0xba35835c	-0.0006924176
15	0x3de1daaa	0.11028035
16	0xbdbe5b78	-0.0929479
17	0xbd18e339	-0.03732607
18	0xbd9afd23	-0.07567813
19	0xbd81dc58	-0.06340855
20	0x3e35a936	0.1774033
21	0xbe27926d	-0.16364451
22	0xbe2b32e5	-0.16718633
23	0x3f124cc6	0.57148397
24	0xbdce91d7	-0.100864105
25	0x3d078fec	0.03309624
26	0xbdcdfd65	-0.10058097
27	0xb9933521	-0.0002807761
28	0x3d96058c	0.07325277
29	0xbda0add4	-0.07845655
30	0x3c121c20	0.008917838
31	0x3d90ceb2	0.07070674
32	0x3db3e007	0.08782964
33	0xbd6938a7	-0.056938794
34	0x3db50a56	0.08839862
35	0x3dc05bd0	0.09392512
36	0xbea04f8e	-0.31310695
37	0xbdd1bfa0	-0.10241628
38	0xbe15cf01	-0.14629747
39	0x3ddb46c2	0.10706855
40	0x3da5f6b4	0.081036955
41	0x3d2c197c	0.04201649
42	0xbd5d5b44	-0.054042116
43	0xbd322db5	-0.04350062
44	0x3ca0b158	0.019615814
45	0xbd82b590	-0.063822865
46	0xbc3f5b00	-0.011679411
47	0xbdd61140	-0.10452509
48	0xbda44765	-0.0802143
49	0xbdedec39	-0.116173215
50	0xbd500ab0	-0.050791442
51	0xbde561b3	-0.11200275
52	0x3c98f57c	0.018671744
53	0x3d1534d7	0.036427345
54	0xbd8efa94	-0.06981388
55	0x3ddea13a	0.10870595
56	0x3d99ae1e	0.07503913
57	0xbd3a59ef	-0.045495924
58	0xbe1d48cb	-0.153598
59	0xbc6f2027	-0.014595068
60	0x3d84c0b6	0.06482069
61	0xbd6e1861	-0.05812872
62	0xbd89feaa	-0.067380264
63	0x3def2da0	0.11678624
64	0xbdcae7c4	-0.09907487
65	0x3d9b84d8	0.07593697
66	0x3bb721e0	0.005588755
67	0x3c84a2f0	0.016190976
68	0x3c2e3dc0	0.01063484
69	0x3d420130	0.047364414
70	0xbc2b76a0	-0.010465294
71	0x3b042340	0.0020162612
72	0x3dd3c1cc	0.10339698
73	0xbbb11fe0	-0.005405411
74	0x3dd82f16	0.10555856
75	0x3d966772	0.073439494
76	0x3d78a1fc	0.060701355
77	0x3cb35ad8	0.021893904
78	0x3d5b5b7c	0.053554043
79	0xbd5b1524	-0.05348696
80	0x3d8b13e0	0.067909
81	0x3d96fa2e	0.07371937
82	0xbde211b8	-0.11038536
83	0x3d92dc38	0.0717091
84	0x3d66ffcc	0.05639629
85	0xbd01d35c	-0.03169571
86	0xbcc3cf78	-0.02390264
87	0xbdedcefc	-0.11611745
88	0x3d1bd730	0.038047016
89	0xbde19de8	-0.11016446
90	0x3d93d4d2	0.07218327
91	0xbdce62c8	-0.10077435
92	0xbd84b87e	-0.064805016
93	0x3cd7b1d0	0.026329905
94	0x3ddd0cb6	0.1079344
95	0xbdd330a2	-0.1031201
96	0x3cc96818	0.024585769
97	0x3c004320	0.007828504
98	0xbde166f8	-0.11005968
99	0x3d58da98	0.052942842
100	0xbda109b0	-0.07863176
101	0xbd62eff0	-0.055404603
102	0xbddd7af2	-0.108144656
103	0xbd2d347c	-0.04228638
104	0x3c339f50	0.010963276
105	0xbcdb5a48	-0.026776448
106	0x3d6ee660	0.05832517
107	0x3cc262d0	0.023728758
108	0x3d32d6cc	0.043661878
109	0xbde2999a	-0.110644534
110	0xbdc378f4	-0.09544554
111	0x3d27e2f0	0.04098791
112	0xbba603a0	-0.00506635
113	0x3db44bbe	0.08803509
114	0x3d2a4f50	0.041579545
115	0xbd9fa9a4	-0.07796028
116	0xbd9a1d04	-0.075250655
117	0xbc9fa578	-0.019488081
118	0xbcbed5f8	-0.023295388
119	0x3d5956e8	0.053061396
120	0xbdf64026	-0.12023954
121	0xbde3bc2e	-0.11119877
122	0xbc62b7c0	-0.013837755
123	0xbd2b8554	-0.0418752
124	0xbd4a795c	-0.049432144
125	0x3ca9c7c8	0.020725146
126	0xbd498f10	-0.0492087
127	0x3dc96f7c	0.09835717
128	0xbd94ef70	-0.072722316
129	0x3d72efec	0.05931084
130	0x3db0eb4a	0.08638628
131	0xbdad5b2e	-0.08464657
132	0x3dacb9bc	0.084338635
133	0xbd888496	-0.06665914
134	0xbdff4298	-0.124638736
135	0xbe0eb7bb	-0.13937275
136	0xbd3498d8	-0.044091076
137	0xbd99cd84	-0.07509902
138	0xbda7be48	-0.0819059
139	0xbccb3900	-0.024807453
140	0xbd9e3550	-0.07725012
141	0x3d0435ba	0.0322778
142	0x3ce525f0	0.027972192
143	0xbcab84d0	-0.020937353
144	0xbdcc4058	-0.0997321
145	0x3c8d5617	0.017252965
146	0x3d88709c	0.066621035
147	0x3d3bcd58	0.045850128
148	0x3c93df58	0.018050835
149	0xbdba5338	-0.09097904
150	0x3d8f24a2	0.06989409
151	0xbde7db8d	-0.11321173
152	0x3c109490	0.008824483
153	0x3d2e726c	0.04258959
154	0x3cad2cca	0.021139521
155	0x3c77357c	0.015088435
156	0xbb7ec240	-0.0038873106
157	0xbd8478b3	-0.06468334
158	0x3dfd6208	0.123722136
159	0x3dd4de06	0.1039391
160	0x3d32e166	0.043671988
161	0x3c703350	0.014660671
162	0x3c3eddd0	0.011649564
163	0xbcd78a28	-0.026310995
164	0xbc9aede2	-0.01891226
165	0xbd311fb4	-0.043243125
166	0x3da05611	0.07828916
167	0x3d8a90cc	0.06765899
168	0xbc76fe40	-0.015075266
169	0x3d2b8ca6	0.04188218
170	0x3d685788	0.0567241
171	0x3ce3fcdc	0.027830534
172	0xbded8786	-0.11598115
173	0x3c712210	0.014717594
174	0xbd67af44	-0.05656363
175	0xbb9d5240	-0.0048010647
176	0x3d69555c	0.05696617
177	0xbcf9eef0	-0.030509442
178	0xbce00e98	-0.027350709
179	0xbdf1009c	-0.11767694
180	0x3dc6a28c	0.09698972
181	0x3dd56a34	0.10420647
182	0xbdf60dee	-0.120143756
183	0xbc6d9290	-0.014500275
184	0x3bbb366c	0.0057132747
185	0x3d48d84e	0.04903441
186	0xbcbc04a2	-0.022951428
187	0xbd2b811f	-0.041871186
188	0xbc77f830	-0.015134856
189	0xbdaf991e	-0.08574127
190	0xbb880760	-0.00415127
191	0x3ca5abd0	0.020223528
192	0x3e132b94	0.14372092
193	0xbd346b40	-0.044047594
194	0x3dd2498e	0.10267936
195	0x3e0a287f	0.1349201
196	0xbde2d7b0	-0.110762954
197	0x3d0d2b48	0.034465104
198	0x3d1dfd84	0.03857185
199	0x3f4f4bf0	0.80975246
200	0xbdcb152c	-0.099161476
201	0x3d800f2c	0.06252894
202	0x3e669507	0.22517787
203	0xbbce74ca	-0.0063005434
204	0x3e2db6de	0.1696429
205	0x3d1a12f9	0.03761575
206	0x3dca09cc	0.0986515
207	0xbaf20a69	-0.0018466237
208	0xbe0e86f0	-0.13918662
209	0x3dfd00e5	0.12353686
210	0xbdf58b6a	-0.11989482
211	0x3d8af784	0.06785491
212	0xbd86b5cf	-0.06577646
213	0x3f1e3ad3	0.6180851
214	0x3ed8136f	0.42202327
215	0xbec57248	-0.38563752
216	0xbcc25dfe	-0.02372646
217	0xbd512950	-0.05106479
218	0xbda9c539	-0.0828957
219	0x3dff5d0e	0.12468921
220	0x3add4c80	0.0016883761
221	0x3d4ac4d3	0.049504112
222	0xbc83d528	-0.016092852
223	0xbd8e073c	-0.069349736
224	0xbd85992a	-0.06523354
225	0xbd863bc4	-0.06554368
226	0xbcff02c0	-0.031129241
227	0xbded912c	-0.11599955
228	0x3f243f1f	0.64158815
229	0xbe562d4f	-0.20915721
230	0x3d834192	0.06408991
231	0x3d409675	0.047018487
232	0x3dbebcd0	0.09313357
233	0xbdd640d0	-0.10461581
234	0x3da6de64	0.081478864
235	0xbd88439e	-0.06653522
236	0xbc475210	-0.012165561
237	0x3e6e6422	0.23280385
238	0xbd4029d4	-0.04691489
239	0xbca5ba60	-0.020230472
240	0xbd9a2b6c	-0.07527813
241	0xbc8e7e80	-0.017394304
242	0x3d7d62f0	0.061861932
243	0x3e435805	0.19076546
244	0x3d20892b	0.039193314
245	0x3def8bd6	0.116965935
246	0xbd5176f4	-0.051138833
247	0xbcf53ab8	-0.029935226
248	0x3d213b86	0.039363407
249	0x3eb96d20	0.36216068
250	0x3e88fe1f	0.2675638
251	0xbe3eddc2	-0.18639281
252	0xbd665a4c	-0.056238458
253	0xbc5dbb73	-0.013533461
254	0x3da5909a	0.08084221
255	0x3d8ce4fd	0.068796135

bias f4 [256]
0	0x3e626bc4	0.22111422
1	0xbd919812	-0.07109083
2	0xbc0a5f4f	-0.008445575
3	0x3e3e2175	0.1856745
4	0x3e98b7e5	0.298278
5	0x3e005e0a	0.12535873
6	0x3e941205	0.28919998
7	0xbcfe3bae	-0.031034317
8	0xbdad34e1	-0.084573515
9	0xbdc11e64	-0.09429625
10	0x3e414ba3	0.1887651
11	0x3e28f190	0.16498399
12	0xbdbb14ad	-0.09134803
13	0x3e87d134	0.26526797
14	0x3e6bc4a6	0.23024234
15	0x3e2e4e81	0.17022134
16	0xbd9a7b31	-0.07543028
17	0xbd462913	-0.048379015
18	0x3e17ed49	0.14836611
19	0x3e0e6323	0.13905005
20	0xbda08572	-0.07837953
21	0x3e5d4c93	0.21611242
22	0x3e6be1b6	0.2303532
23	0xbe917e84	-0.28416836
24	0x3e7c17c5	0.24618442
25	0xbda70c15	-0.08156601
26	0x3e2e2288	0.1700536
27	0x3dc355be	0.095378384
28	0xbdc1a7dc	-0.09455845
29	0x3e7ccb6b	0.24686973
30	0xbd7eeb01	-0.062235836
31	0xbdf11bbc	-0.11772868
32	0xbdf28f64	-0.11843756
33	0xbc383929	-0.011244097
34	0x3e690d6c	0.22759026
35	0x3e80fdf1	0.25193742
36	0x3e507e0b	0.20360582
37	0x3e1ee15e	0.15515658
38	0x3e281000	0.16412354
39	0x3e77a1bf	0.24182795
40	0xbd85903c	-0.06521651
41	0xbdc2460c	-0.09486017
42	0x3e7b864f	0.24562953
43	0x3e641f1e	0.22277495
44	0x3e4bb316	0.19892535
45	0x3def7d59	0.1169383
46	0xbdc344f5	-0.09534637
47	0xbd7dd24d	-0.061968137
48	0xbc15ac96	-0.009135386
49	0x3e7a76ee	0.2445943
50	0xbe1fd56a	-0.15608755
51	0x3e23091b	0.15921442
52	0x3e15e471	0.14637925
53	0x3dbc3ee1	0.09191681
54	0x3e39761e	0.18111464
55	0x3e239b74	0.1597727
56	0x3e8cf888	0.27533364
57	0x3e814996	0.25251454
58	0x3db52a8a	0.08846004
59	0xbc90a8f0	-0.01765868
60	0x3e7f5752	0.24935654
61	0xbde18e9c	-0.11013529
62	0xbe0ff654	-0.1405881
63	0x3e11a639	0.14223565
64	0x3e670857	0.22561775
65	0x3e05078f	0.12991165
66	0x3e664c87	0.2249013
67	0x3e3e776e	0.18600246
68	0x3e808fbc	0.2510966
69	0x3e7e2afb	0.24821083
70	0x3e23767d	0.15963168
71	0x3e70d2bb	0.23517887
72	0x3e6d713f	0.23187731
73	0x3e3e90ed	0.18609972
74	0x3df37c35	0.11888925
75	0xbd8cbf30	-0.068724036
76	0xbd2954f3	-0.04134078
77	0x3e5417cb	0.20712201
78	0xbd8f83e0	-0.07007575
79	0x3e53f0cd	0.20697327
80	0x3e4dc6ea	0.20095411
81	0xbd3a0524	-0.04541506
82	0x3e428922	0.18997625
83	0xbceac9b2	-0.028660629
84	0x3e2a0205	0.16602333
85	0x3e490b02	0.19633105
86	0x3e741599	0.23836364
87	0xbd5d9350	-0.054095566
88	0x3e7edad3	0.24888162
89	0xbdae8480	-0.08521366
90	0xbd21396c	-0.039361402
91	0xbdd331d3	-0.103122376
92	0x3e40ede0	0.18840742
93	0x3e446e7e	0.19182774
94	0xbd787eea	-0.06066791
95	0x3e283c47	0.16429244
96	0xbdeb5fad	-0.11492858
97	0xbd80a286	-0.06280999
98	0x3e651702	0.22372058
99	0x3e443f69	0.19164814
100	0xbe019540	-0.1265459
101	0xbdad6660	-0.08466792
102	0xbd16cb12	-0.036814757
103	0x3e30ae50	0.17253995
104	0xbde839ba	-0.113391355
105	0xbd1d354f	-0.038380917
106	0x3e30d4a0	0.1726861
107	0x3e358346	0.17725858
108	0x3e47be7a	0.19506255
109	0x3e185545	0.14876278
110	0xbe8d4e42	-0.27598768
111	0xbd82dbfa	-0.063896134
112	0x3e698502	0.22804645
113	0x3e24bddb	0.16088049
114	0xbdf99e8c	-0.121884435
115	0x3e5cf365	0.21577223
116	0xbcca2f68	-0.024680808
117	0x3e20e505	0.15712364
118	0x3e4ea09c	0.20178455
119	0xbe1d8fe4	-0.15386921
120	0xbe00e166	-0.12585983
121	0xbd9c3f12	-0.07629217
122	0xbd869af2	-0.06572522
123	0x3e73a40c	0.23793048
124	0x3e4f5843	0.20248513
125	0xbdb2fa22	-0.08739115
126	0xbc491497	-0.012272975
127	0xbd555174	-0.052079633
128	0x3e6e1ce9	0.23253216
129	0xbcfe6058	-0.0310518
130	0x3defbed4	0.117063195
131	0xbd95252d	-0.07282481
132	0xbe89bb1a	-0.2690056
133	0x3e3f372c	0.1867339
134	0xbd334a8c	-0.043772265
135	0xbd6bdb02	-0.05758191
136	0xbd68b399	-0.056811903
137	0x3e8a7def	0.27049205
138	0x3e20b929	0.15695633
139	0x3e29d425	0.16584833
140	0xbd9c7d9e	-0.07641147
141	0x3e32c8e5	0.17459448
142	0xbe053f44	-0.13012415
143	0x3e3fa480	0.18715096
144	0x3e0d68f8	0.13809574
145	0xbdb32c46	-0.08748679
146	0xbc64ed5a	-0.013972605
147	0xbd77d2e4	-0.060503855
148	0x3e34c4d0	0.17653203
149	0xbc9efebf	-0.019408582
150	0x3e8e01d8	0.27735782
151	0x3d945014	0.07241836
152	0xbeaeac80	-0.34115982
153	0xbdce5f52	-0.10076775
154	0xbdd4f00e	-0.10397349
155	0xbd4a74d5	-0.049427826
156	0xbbbf6b6c	-0.005841663
157	0x3e14b12b	0.14520709
158	0x3e38b1ef	0.18036626
159	0x3e83576c	0.25652635
160	0xbc6d8d0f	-0.014498963
161	0x3e44449d	0.19166799
162	0xbd2d7b00	-0.04235363
163	0x3e451471	0.19246079
164	0xbdad4a12	-0.084613934
165	0x3e3a213b	0.18176739
166	0x3e8389ce	0.25691074
167	0x3da71e37	0.0816006
168	0xbd8cde46	-0.06878333
169	0x3e40cd34	0.18828279
170	0xbc3b0d8c	-0.011416804
171	0xbe1b0153	-0.15137224
172	0xbcf3ca58	-0.029759571
173	0xbe2657c7	-0.16244422
174	0x3e2e78b1	0.17038228
175	0x3e4e54fb	0.20149605
176	0xbe16c89c	-0.14724964
177	0x3e2110e0	0.15729094
178	0xbde1e3cb	-0.11029776
179	0xbd7c5290	-0.061602175
180	0x3e8e43ff	0.27786252
181	0xbdffc320	-0.12488389
182	0xbd8d8c2a	-0.069115
183	0x3e563899	0.20920028
184	0xbca2fb68	-0.01989527
185	0xbe4e2ae4	-0.20133549
186	0x3e8c4c8b	0.27402148
187	0x3e4a5da9	0.19762291
188	0xbde2b278	-0.110691965
189	0xbc971350	-0.018441826
190	0x3e371a60	0.17881155
191	0x3eda0a8a	0.42586166
192	0xbc682389	-0.0141686285
193	0xbcc3ba52	-0.023892555
194	0x3e882883	0.26593408
195	0xbdceceb8	-0.10098022
196	0xbc047285	-0.008083944
197	0x3e882b1d	0.26595393
198	0x3e427f8f	0.18993972
199	0xbcefdf7b	-0.029281368
200	0xbc459e10	-0.012061611
201	0x3e1f2116	0.15539965
202	0xbd71c487	-0.059025314
203	0x3e3dbeb4	0.18529779
204	0xbe81ff52	-0.25390106
205	0xbdadc168	-0.08484155
206	0xbdd2b371	-0.10288132
207	0xbc6df96d	-0.0145248
208	0xbd47d394	-0.04878576
209	0xbd275344	-0.040850893
210	0x3d9ab935	0.07554857
211	0xbde5b6eb	-0.112165295
212	0xbd6777d8	-0.056510776
213	0xbd5ab643	-0.053396475
214	0xbdef042a	-0.11670716
215	0x3e168d29	0.14702286
216	0x3e356a5b	0.17716353
217	0x3e3f4ba1	0.18681194
218	0xbb38b5fe	-0.0028184648
219	0x3e82a0ec	0.255134
220	0x3e6e8a44	0.23294932
221	0x3e3c05c9	0.18361582
222	0xbdda7e7c	-0.10668656
223	0x3e99628a	0.29957992
224	0xbd85f443	-0.0654073
225	0xbd88f75f	-0.06687807
226	0xbda6970d	-0.081342794
227	0xbe06120a	-0.13092819
228	0x3e6f30b7	0.23358427
229	0x3e1beea0	0.15227747
230	0xbdafbf11	-0.08581365
231	0xbe198381	-0.14991571
232	0x3e14d18c	0.14533061
233	0xbd832992	-0.06404413
234	0x3e0629e2	0.13101915
235	0x3e6c6feb	0.23089568
236	0xbd496c24	-0.049175397
237	0x3e249088	0.1607076
238	0xbd2e2748	-0.04251793
239	0xbe8d7732	-0.2763
240	0x3e1426e3	0.14467959
241	0xbd0fe371	-0.035129014
242	0xbda313ca	-0.07962759
243	0x3e519ad5	0.2046922
244	0x3e426406	0.18983468
245	0xbd4491a4	-0.047990456
246	0x3e331c7a	0.17491332
247	0x3e469de9	0.19396175
248	0x3e4c04ed	0.19923754
249	0x3e829806	0.2550661
250	0xbd8c206f	-0.06842124
251	0x3e15f6fc	0.14644998
252	0x3e6357f6	0.22201523
253	0x3e851eea	0.26000148
254	0x3e8b2f98	0.2718475
255	0xbd9b09c0	-0.07570219
