models/model_1742150345.pth (torch, 474990 bytes, 26 tensors)

weight f4 [128, 100]
000000 95 de 33 3d d9 55 24 be 68 3b 32 3e 96 b7 91 bb
       0.043913443 -0.16048373 0.17405474 -0.004446934
000010 e4 48 d6 3d 87 f7 0b 3e 33 c3 ba 3c ce cc a0 bd
       0.104631215 0.13668643 0.022798156 -0.078515634
000020 1a d8 35 3e cc 4f f6 bd 99 14 06 3e fa 34 ef 3d
       0.17758217 -0.12026939 0.13093795 0.11680026
000030 91 ae bb bd ba 66 c6 3d a5 5c ab 3d c6 e8 e1 bb
       -0.09164155 0.09687562 0.0836728 -0.006894204
000040 8d ee 8e 3b be 50 da bc 2e a3 1c bd c6 44 ba 3d
       0.0043619336 -0.026649829 -0.038241558 0.09095149
000050 00 a0 7d bd 20 90 78 bc 22 a9 83 3d 43 dc 86 bd
       -0.061920166 -0.015171081 0.06428744 -0.0658498
000060 33 6a 09 bd 78 38 28 3c 4f e1 e0 bd 1e c9 16 be
       -0.033548545 0.010267369 -0.10980474 -0.14725158
000070 5d a1 ef bd 5c 92 71 bd e2 cb 51 3e 4f 2b 2c be
       -0.117006995 -0.05897747 0.20487931 -0.16813396
000080 6d d8 ce 3e fe 36 c4 bc 5d d3 10 bc a8 9a b8 bb
       0.40399495 -0.023952004 -0.008839455 -0.005633671
000090 41 79 9c bd 30 e0 f3 3d 13 c5 89 3d f0 78 fd bd
       -0.07640315 0.11907995 0.06727042 -0.123765826
0000a0 8e e5 a5 bd 9f f8 c5 3c 5a ff 92 3e 83 88 a9 3e
       -0.08100425 0.024166403 0.28710443 0.33111963
0000b0 69 e2 a7 bd 7c 07 bb bc 18 7b a4 bd bd b4 95 3d
       -0.08197481 -0.022830717 -0.08031291 0.07309864
0000c0 df de 32 3d 2d 60 74 be 4d 9c 73 be e7 bc 38 be
       0.043669578 -0.23864813 -0.23790093 -0.1804081
0000d0 ec f9 a1 bd ec 05 12 3e dc df 32 bd 71 99 7a bd
       -0.07908997 0.14260072 -0.04367052 -0.06118149
0000e0 f0 f8 c1 3d 89 94 4b bd 80 1d 2c 3e ea 94 c5 bd
       0.09471309 -0.0497022 0.16808128 -0.09647544
0000f0 db d0 ae 3c e9 7e 09 3e 36 db 5b 3e ea c6 4b 3d
       0.021339824 0.13427319 0.21470341 0.049750246
000100 40 6a 4f 3e f4 3b ae 3d b4 b7 9d bd 15 e4 91 3d
       0.20255375 0.08507529 -0.07701054 0.07123581
000110 4b 42 13 bd ce c3 47 be 0d 8e 68 3c 29 86 8a 3c
       -0.035951894 -0.19508287 0.014194024 0.016909676
000120 bf f8 05 3e 63 28 05 be 8e a7 06 bd 52 9a 2c be
       0.1308317 -0.13003688 -0.032874636 -0.16855744
000130 d5 10 24 be 74 24 92 3b bc bd dd 3d 6a 1a 91 3d
       -0.16022046 0.004459912 0.108272046 0.07085116
000140 fa 18 1f be 08 1e f9 bd fa a7 0b 3e b6 18 9f 3d
       -0.15536872 -0.12163931 0.13638297 0.07768385
000150 a7 d0 59 3e 48 42 9b 3d 75 60 29 3e 60 23 85 bd
       0.21271001 0.075810015 0.16540702 -0.06500888
000160 b4 28 96 3d 8a b9 5c 3e 71 78 1d 3e 8d de b9 bd
       0.07331982 0.21555153 0.15377976 -0.09075651
000170 14 e7 17 3e 1d 2c 45 bd 81 35 a8 bd c5 c3 49 be
       0.14834243 -0.048137773 -0.0821333 -0.19703586
000180 7b f7 f0 3d 8c 87 04 3e b9 4b b0 bc 5d 32 9c be
       0.11765953 0.12942332 -0.021520482 -0.30507174
000190 1f 2e 86 3d 0e d8 ab bc 70 ea 1e be ba ea bb bd
       0.06551766 -0.020977046 -0.15519118 -0.0917563
0001a0 f1 c5 6d be 72 63 ea bd 8a 75 0e 3e b6 12 b2 bd
       -0.2322004 -0.11444749 0.13912025 -0.08694975
0001b0 0d 5f ac bd da 33 33 be ff db 7a 3d 60 e2 9b 3d
       -0.08416567 -0.17500249 0.06124496 0.07611537
0001c0 24 81 59 bd ac 38 73 bd c6 d8 73 be ba a5 32 3d
       -0.053101674 -0.05938022 -0.23813161 0.04361508
0001d0 f8 bd 56 3c f4 5c 58 bd d0 43 1f bd e4 be 24 be
       0.0131068155 -0.052823022 -0.03888303 -0.16088444
0001e0 fc b8 5e 3d 7c e2 60 be 1d 8e e7 bd 03 38 c3 bd
       0.054375634 -0.21961397 -0.11306403 -0.09532168
0001f0 41 fc 48 be b5 2e 1b be 9f c2 00 3d 9b a7 3c be
       -0.19627477 -0.15154536 0.031435605 -0.18423311
000200 71 41 4c 3c df e1 02 3e b5 f7 e6 3d 73 28 58 3d
       0.012466774 0.12781475 0.11277715 0.05277295
000210 ea 76 12 be 67 3c 99 3c a0 f5 9d bd a9 d7 22 be
       -0.14303175 0.01870556 -0.07712865 -0.1590258
000220 e7 1b 9f bd d6 c0 50 be 99 2b 07 3e dd 7b a0 3d
       -0.07768994 -0.20386061 0.13200225 0.07836125
000230 a3 3c 10 3e 04 35 0b be 3f 9b 55 3e 6e a1 0e be
       0.14085631 -0.13594443 0.20860003 -0.13928768
000240 c2 9d 9a bc 8a ed ad 3c 66 1e cb 3d bc 7c d9 3d
       -0.018874053 0.021231432 0.099179074 0.10619494
000250 f4 a7 45 ba be 40 26 bd 3d 69 ab 3c b3 c6 fd bd
       -0.00075399806 -0.040589087 0.020924205 -0.123914145
000260 20 b6 9e ba 67 24 21 bc 65 54 aa 3d 4e d3 0c 3e
       -0.0012108721 -0.009835339 0.08316878 0.13752481
000270 b4 01 89 3c 68 8f 65 bc a4 8c d6 bc 11 93 a1 bd
       0.016724445 -0.0140112415 -0.02619011 -0.07889379
000280 f8 96 40 3d 71 82 b8 3d 43 21 1d bb 00 cf 21 bb
       0.047018975 0.09009255 -0.0023976124 -0.0024690032
000290 43 da 01 be df 70 dc 39 d4 5c b3 3d 0e 2d 65 3e
       -0.12680916 0.00042045765 0.0875794 0.22380468
0002a0 3a 12 99 bd f3 59 e4 3b 04 aa 85 bc 4c 53 63 be
       -0.074741796 0.0069687306 -0.016316421 -0.22199744
0002b0 b0 de 07 3d 35 08 2e be 95 f8 cb bd 19 8c 0e 3e
       0.033171356 -0.16995318 -0.09959523 0.1392063
0002c0 99 82 6d be 7d cd c3 3e 93 2a 0b 3e 0d 42 b0 bd
       -0.2319435 0.38242713 0.1359046 -0.08606348
0002d0 70 54 2d 3d 8c dd 54 3e cc 26 79 3d a9 d0 91 3d
       0.042316854 0.20787638 0.060828015 0.07119877
0002e0 0d 8a 39 3e 62 0c e9 3d 23 6d 15 3e f5 9d ef bc
       0.18119068 0.11379315 0.14592414 -0.029250124
0002f0 ec 08 15 be 5a 9f 3b be 0f 1c bd bd e8 78 56 be
       -0.14554185 -0.18322507 -0.092338674 -0.2094456
000300 d4 16 38 3d 0f 48 f8 3d d2 12 2c be 8b bc 88 3d
       0.044943646 0.12123119 -0.16804054 0.06676587
000310 b8 c4 ca 3d 10 1c 06 bd 4c 8d 8d 3d ab 60 15 3d
       0.099008024 -0.032741606 0.06911716 0.036469143
000320 08 c6 0a be 90 9a 39 3d c8 d6 0c 3e 52 ad 54 be
       -0.13552105 0.045313418 0.13753808 -0.20769241
000330 1a ea 1e 3d 9c b8 61 be c3 31 53 be f6 af 0f be
       0.038797475 -0.22043079 -0.20624451 -0.14031968
000340 da 64 77 bd 1f aa 13 3d 5c f7 ec bc 21 fc 1c bd
       -0.060398914 0.036050912 -0.028926544 -0.038326386
000350 e7 ab b9 bc c7 c3 ab 3c 9a 06 ae bb 99 40 42 3d
       -0.022664977 0.020967377 -0.0053108456 0.047424886
000360 57 da 76 bd 2e 60 6f bd 31 1d 0f 3e 61 67 5c bd
       -0.06026682 -0.058441333 0.1397598 -0.053809527
000370 f6 93 e2 3d ba 50 0a 3e 08 db f8 3c 1a 9f df bd
       0.110633776 0.13507357 0.03037788 -0.10919018
000380 eb 33 73 be 4e 0b 04 3e 2a 2a 38 3d c0 e9 bd 3d
       -0.23750274 0.12894937 0.044962086 0.092731
000390 8b 3a d7 3c 06 52 2f be d2 90 10 be b9 8d 8a 3e
       0.026273033 -0.17121133 -0.14117745 0.2706125
0003a0 8d 2d c9 3c b3 a6 91 3e e7 e6 3e 3d f4 54 31 be
       0.024557853 0.28447494 0.046606924 -0.17317563
0003b0 ee 1c 8d bd 26 7e 80 3d 11 8c 6f be 3b 15 5d be
       -0.068902835 0.06274061 -0.23393275 -0.2159013
0003c0 8d 8e 0b 3e de 84 2e be cc ed d3 3c 5f a8 05 bd
       0.13628598 -0.17042872 0.025870226 -0.032631274
0003d0 cc 90 6a bb 57 71 35 bd 01 04 ad bd d7 a2 38 3e
       -0.0035791872 -0.044297542 -0.08448029 0.18030868
0003e0 e6 8d a8 bd 8d b1 16 3b 5e fc ed bd 93 57 eb bd
       -0.0823019 0.0022994012 -0.11620401 -0.11491313
0003f0 c5 02 84 be f4 30 a4 3b ec 14 2f 3e 57 60 a5 bd
       -0.25783363 0.0050107185 0.17097825 -0.08075016

bias f4 [128]
000000 18 96 99 3c 24 a8 b9 3d ea 53 8e 3c 42 ba 90 3e
       0.018748328 0.090652734 0.017373998 0.28267103
000010 78 45 4f bc 78 f8 75 be 25 eb 91 be f4 29 9e 3c
       -0.01265084 -0.24020565 -0.28499714 0.019307114
000020 cf 0b 8b bc eb 42 47 be e2 6c 23 3e 40 f3 d6 3d
       -0.016973404 -0.19459121 0.15959504 0.10495615
000030 c8 d3 69 bd b7 94 54 3d 17 0a 8b 3e 28 81 80 3e
       -0.057086736 0.051899638 0.27156135 0.25098538
000040 a0 ff a0 be 68 86 a7 3d 5c 13 b4 3e b6 43 4e bd
       -0.31445026 0.08179933 0.3517102 -0.050357543
000050 43 0e 51 bc 60 29 80 3e e7 ed 6f 3d 58 53 7b ba
       -0.012759748 0.25031567 0.05857649 -0.00095873093
000060 ec e6 89 bc 03 36 cd 3d c8 19 97 3d 2c cb cd bc
       -0.016833745 0.100200675 0.07377964 -0.025121294
000070 73 7f 77 3c a6 89 dc bb 3a 0b 3e 3d 9b d7 47 3d
       0.01510607 -0.006730276 0.046397425 0.0487896
000080 e9 61 e5 3d 84 96 10 bc a7 44 9e 3b b4 9c 21 bb
       0.112003155 -0.008824948 0.0048299613 -0.0024660053
000090 1d 75 1f 3d 2a b8 a3 be 36 d7 93 bc e5 61 41 bd
       0.038930047 -0.31976444 -0.018046957 -0.0472125
0000a0 ce b0 d9 bd be f8 8d be 82 1f 70 3d 4d b5 bf bd
       -0.10629426 -0.27728838 0.0586238 -0.09360752
0000b0 d6 54 a2 bd f9 22 65 be 60 ed a5 bd 8a 66 54 3d
       -0.079263374 -0.22376622 -0.08101916 0.0518556
0000c0 82 fc 99 3d 43 76 70 be 99 55 56 bd 81 46 6f 3e
       0.07518865 -0.23482613 -0.052327726 0.23366739
0000d0 ba 8e a5 be 0c ac 88 be 3d d6 76 bd ea b8 ff bc
       -0.32335454 -0.2669376 -0.060262907 -0.031216104
0000e0 df 2c 21 3d 34 8e 85 3c c6 71 f1 bd 98 94 18 3e
       0.039349433 0.01630316 -0.11789279 0.14900434
0000f0 a4 34 2b ba 4f 5a 80 3d 6b be 7c bc 67 5d 30 be
       -0.00065309764 0.06267225 -0.015426259 -0.1722313
000100 55 05 c6 bc 98 14 73 3d f1 c2 51 3d 52 f2 b0 be
       -0.024172464 0.05934581 0.0512113 -0.34559876
000110 51 67 4b be c5 b9 8c bd bf b4 b0 bd 46 f7 2e bc
       -0.19863631 -0.0687137 -0.086282246 -0.010679072
000120 c9 47 b4 bd b6 09 0b 3d d0 f1 18 3c f6 98 df 3d
       -0.088027544 0.033944808 0.009334996 0.10917847
000130 a5 24 9b be 18 62 85 3d 16 91 d5 3d 4e fc 75 be
       -0.30301395 0.065128505 0.104280636 -0.24022028
000140 1f 78 58 3e a0 c3 9d 3e 8f 55 bc 3e 69 a4 7c bc
       0.21139573 0.30813313 0.36784026 -0.015420058
000150 49 26 97 bd 77 48 18 3b 26 7f f0 bc 1d 0a b2 3c
       -0.07380349 0.0023236552 -0.029357504 0.021733338
000160 fb fc 82 bc 71 2d 6a 3b 88 6a 35 bd b9 fd 6e bc
       -0.015989771 0.0035732652 -0.04429105 -0.014586859
000170 aa 53 9f be 9e f6 e0 bd 35 fd fb bc cd 0b 16 3e
       -0.31118518 -0.109845385 -0.030760387 0.14652939
000180 d2 32 9c b8 62 cf 1a 3e ea 20 85 be 53 bc a5 bc
       -7.448126e-05 0.15118173 -0.26001674 -0.020231402
000190 4e e6 71 bd ed 3c 46 bd 46 21 45 be 03 31 29 ba
       -0.059057526 -0.048397947 -0.19250974 -0.00064541417
0001a0 9d 26 e3 be 0f d3 6f 3d 9d af ae 3e 02 43 70 3c
       -0.44365397 0.05855089 0.34118357 0.014664413
0001b0 72 66 53 be b4 47 ab 3b a1 33 b3 3d 47 1e 2a 3e
       -0.20644549 0.0052270535 0.08750082 0.16613112
0001c0 61 ac 1b bc 07 c6 a9 bb 11 70 84 bd 09 78 23 3e
       -0.009501548 -0.0051810774 -0.064666875 0.15963759
0001d0 96 4f 6b bd 19 6c 53 bc 56 af f6 3d 40 52 19 bc
       -0.057448946 -0.01290419 0.120451614 -0.009357989
0001e0 85 ce 51 bb 54 da 92 39 5a ee 3a bd 92 70 a1 be
       -0.0032013964 0.00028009957 -0.045637466 -0.31531197
0001f0 ca 63 66 3c 34 10 7c 3d 52 30 30 3d 85 67 09 3d
       0.0140618775 0.06153889 0.04301483 0.03354599

weight f4 [128]
000000 22 6b 65 3f fe b1 76 3f 45 9a 87 3f c8 6f 78 3f
       0.89616597 0.96365345 1.0593954 0.97045565
000010 ed e3 7b 3f 7d 9b 88 3f fd 8f 64 3f ce c1 89 3f
       0.9839466 1.0672451 0.8928221 1.076227
000020 08 43 5e 3f d3 29 8b 3f 7e ed 7c 3f 7a 31 88 3f
       0.8682103 1.0872139 0.98799884 1.0640099
000030 0f a0 69 3f ce 5a 82 3f 24 8e 6f 3f b9 46 6d 3f
       0.91259855 1.0183961 0.93576264 0.9268604
000040 80 a8 8c 3f 38 b8 4e 3f 77 27 61 3f 01 aa 87 3f
       1.0988922 0.80749846 0.87950844 1.0598756
000050 e6 dc 62 3f e8 6c 81 3f fe e9 88 3f 28 dd 6b 3f
       0.88618314 1.011136 1.0696409 0.9213433
000060 49 ec 67 3f 98 3c 82 3f 8d 30 81 3f 6e 04 78 3f
       0.9059492 1.0174742 1.0092942 0.9688176
000070 e3 8f 85 3f ea a6 7d 3f b7 f9 85 3f e0 1e 8f 3f
       1.0434536 0.99082816 1.0466832 1.1181297
000080 7d 30 88 3f 7d ab 50 3f ce fb 61 3f 68 cd 7e 3f
       1.0639797 0.8151167 0.8827485 0.99532175
000090 15 de 92 3f 91 50 89 3f 02 82 85 3f 45 8d 70 3f
       1.1474024 1.0727712 1.04303 0.9396556
0000a0 c0 1c 87 3f d7 03 75 3f 5f d2 63 3f df 96 8d 3f
       1.0555649 0.95708984 0.88992876 1.1061667
0000b0 eb ae 6a 3f ec 45 62 3f 53 6e 8e 3f e1 21 92 3f
       0.91673154 0.8838794 1.1127418 1.1416589
0000c0 24 20 77 3f ba 16 75 3f 6b 7d 8d 3f a4 11 69 3f
       0.9653342 0.95737803 1.10539 0.9104254
0000d0 66 27 69 3f e8 ff 5f 3f d9 9f 4c 3f 2d 58 70 3f
       0.9107574 0.87499857 0.7993141 0.93884546
0000e0 a0 35 86 3f 68 9d 8c 3f 62 36 7e 3f 1a 94 83 3f
       1.0485115 1.0985537 0.9930173 1.0279572
0000f0 b4 10 84 3f 96 6b 6d 3f a2 5b 5b 3f 1c 6c 70 3f
       1.0317597 0.9274229 0.85686696 0.9391496
000100 70 56 82 3f 70 4d 69 3f 7f 4c 4e 3f 57 0b 88 3f
       1.0182629 0.91133785 0.80585474 1.0628461
000110 2c 3a 86 3f 2a 44 68 3f a4 a0 75 3f 72 13 91 3f
       1.0486503 0.9072901 0.95948243 1.1334059
000120 28 b6 83 3f 03 59 8f 3f ba ed 82 3f a5 d9 51 3f
       1.0289965 1.1199039 1.0228798 0.81972724
000130 b7 ed 73 3f 1a d5 52 3f c8 f8 88 3f a7 bd 8f 3f
       0.952846 0.8235642 1.0700922 1.1229752
000140 38 97 66 3f 60 29 68 3f 8f cc 6b 3f 47 4c 7b 3f
       0.9007449 0.90688133 0.92109007 0.98163265
000150 f4 bb 53 3f 5a 70 71 3f 73 0e 6b 3f 90 2e 7e 3f
       0.8270867 0.9431206 0.9181892 0.992898
000160 77 1e 5a 3f 81 19 5d 3f 6e 19 75 3f 9c a3 73 3f
       0.85202736 0.8636704 0.9574193 0.95171523
000170 5b 61 49 3f b9 05 8a 3f 9f f9 5e 3f cb 45 58 3f
       0.7866418 1.0782996 0.8709964 0.84481496
000180 50 04 7d 3f 6d c2 65 3f 2a c0 8c 3f c4 51 89 3f
       0.98834705 0.89749795 1.0996144 1.0728078
000190 c5 94 63 3f f2 fb 8d 3f 72 d2 83 3f 7c 7c 86 3f
       0.8889888 1.1092513 1.0298598 1.050674
0001a0 f5 85 74 3f f4 9e 6c 3f 53 26 63 3f 15 06 83 3f
       0.955169 0.92430043 0.88730353 1.0236231
0001b0 19 fe 8a 3f 9d 0f 66 3f 81 b1 63 3f 43 70 4a 3f
       1.0858794 0.89867574 0.88942724 0.7907755
0001c0 41 79 89 3f 37 f3 5e 3f f9 99 81 3f 8d dd 7d 3f
       1.0740129 0.87089866 1.0125114 0.99166185
0001d0 1a f2 91 3f ff 40 97 3f 7b 58 6a 3f 2d 5c 3b 3f
       1.1402009 1.181671 0.9154126 0.73187524
0001e0 a4 f2 65 3f 02 39 81 3f d7 e8 60 3f 94 ec 74 3f
       0.89823365 1.0095522 0.87855285 0.9567349
0001f0 55 6b 69 3f c2 94 87 3f 85 fe 75 3f a3 0c 6f 3f
       0.911794 1.0592272 0.9609149 0.9337866

bias f4 [128]
000000 e1 39 b0 bd 00 b1 e8 bd bd 3a 6c be 4a f5 66 be
       -0.086047895 -0.11361885 -0.23069282 -0.22554508
000010 d0 2d 4f be 90 bb c5 bd aa ce 88 bd 15 2a a0 be
       -0.2023232 -0.09654915 -0.06680043 -0.31282106
000020 7a 3f 67 be 5a 5e 1e be c0 25 2e be 6d 33 a1 bd
       -0.22582808 -0.1546568 -0.17006588 -0.07871137
000030 f3 89 b8 be b3 e6 74 bd d8 26 98 be 74 17 2f be
       -0.36042747 -0.059790324 -0.29717135 -0.1709879
000040 2a a4 75 be fd b8 3a be c8 de 91 be 40 a9 97 be
       -0.23988405 -0.1823463 -0.2849028 -0.29621315
000050 ed 40 b7 be 03 88 f6 bd 9e 41 66 be b6 41 99 be
       -0.35791722 -0.12037661 -0.22485968 -0.29932946
000060 f2 ca 2b be d8 d9 77 be cf c4 32 be f7 b3 2f be
       -0.16776636 -0.24204195 -0.17457889 -0.17158495
000070 95 06 a5 be 2b 89 18 be 12 42 2e be c7 20 1b be
       -0.32231584 -0.14896075 -0.17017391 -0.15149222
000080 3a fd e1 bd 93 d6 5c be 14 60 34 be 43 28 79 be
       -0.11034627 -0.21566229 -0.17614776 -0.24331765
000090 63 b8 fa bd 1e 6e 6a be 0b 1d 0b be ff bd a9 bd
       -0.122422 -0.22893569 -0.13585298 -0.08288192
0000a0 f2 9a 47 be 97 56 3b be f2 93 6d be 43 ab 8d bd
       -0.194927 -0.1829475 -0.23200968 -0.06917431
0000b0 70 76 92 be 28 8d 4e be 6a 95 77 be 06 cc 17 be
       -0.28605986 -0.20171034 -0.2417809 -0.14823923
0000c0 e7 d9 47 be c6 c8 84 be ab bd 28 be dc 25 93 be
       -0.19516717 -0.25934428 -0.16478603 -0.28739822
0000d0 42 3b 8c be 3b ee 52 be 65 99 88 bd b9 ac a0 be
       -0.2738896 -0.2059869 -0.06669883 -0.31381777
0000e0 77 e4 c4 bd 03 ec 6f be cb d2 68 3d 84 c0 62 be
       -0.09613889 -0.23429875 0.056841653 -0.22143751
0000f0 16 6f 88 be 92 36 52 be 24 ac 95 be 04 35 aa be
       -0.26647252 -0.2052863 -0.29232895 -0.33243573
000100 1e a8 79 be 1c 39 cc bd d3 2c b0 bd cb 6f 2f be
       -0.24380538 -0.0997183 -0.086022995 -0.1713249
000110 0f 95 7d be 04 d5 13 be 38 7e 8e be 39 16 39 be
       -0.24763893 -0.14436728 -0.27830672 -0.18074884
000120 c9 ea c6 bd fd 09 43 be 8c db 00 be e9 78 81 be
       -0.097127505 -0.19046779 -0.1258375 -0.2528756
000130 73 a2 31 be 9e 3d 87 be e3 fa 4d be 0a e1 85 be
       -0.17347126 -0.26414198 -0.20115237 -0.26148254
000140 06 fe ad be 54 62 31 be 41 dc 6d be 74 4a 39 be
       -0.33982867 -0.17322665 -0.23228551 -0.18094808
000150 62 1b 67 be be f9 7f be 23 f1 07 be ae 47 9c be
       -0.2256904 -0.24997613 -0.1327558 -0.30523437
000160 d7 8a 19 be b1 be c5 be 96 35 86 be ea f9 5d be
       -0.1499437 -0.38622048 -0.26212758 -0.21677366
000170 9f e0 98 be 9a 21 8b be f1 e8 95 be 91 4a 83 be
       -0.29858872 -0.27174073 -0.29279283 -0.25642827
000180 8a f6 26 be bd f3 35 be a7 7b 87 be c7 8c 46 be
       -0.16304985 -0.1776876 -0.26461527 -0.1938964
000190 1e 3c 70 be ad 90 28 be 07 9f ce bd 0c 39 45 be
       -0.23460433 -0.1646144 -0.10088926 -0.19260043
0001a0 95 70 7e bd 4e 8f 71 be d9 46 8d be 92 21 a7 be
       -0.062119085 -0.23589823 -0.27593115 -0.326428
0001b0 ad f4 2e be 97 a1 4a be c8 52 32 bd 5f a0 f0 bd
       -0.17085524 -0.19788204 -0.043535978 -0.11749338
0001c0 b3 15 51 be 30 60 c6 be a1 c1 d6 bd 12 ed 85 be
       -0.20418434 -0.3874526 -0.104861505 -0.26157433
0001d0 df a5 7e be 5a 77 5d be 05 de 56 be 29 1d 86 be
       -0.24867962 -0.2162756 -0.20983131 -0.26194122
0001e0 52 93 9c be 82 4a 6a be 16 92 8a be c4 d0 09 be
       -0.30581146 -0.22879985 -0.2706458 -0.13458544
0001f0 57 de 3f be 23 b6 03 be 3b 4a 48 be 41 80 09 be
       -0.1873716 -0.12862448 -0.19559567 -0.13427831

running_mean f4 [128]
000000 a4 d7 2d 3c 8e c6 c5 3d fb be 98 3c f1 cb 8f 3e
       0.010610495 0.09657012 0.018645754 0.28085282
000010 9b cf d6 bb 9b 26 76 be 0f 8c 90 be ab 31 a4 3c
       -0.00655551 -0.24038164 -0.28231856 0.020043215
000020 14 37 42 bc 67 5d 35 be 1f 66 25 3e ad b6 e1 3d
       -0.011853952 -0.17711411 0.16152237 0.11021171
000030 b7 a7 4f bd 23 84 30 3d fe f2 8a 3e 5a a9 7e 3e
       -0.050697055 0.043094765 0.27138513 0.2486929
000040 a6 52 a1 be 3f 32 a5 3d 15 e2 b3 3e 77 59 4d bd
       -0.31508368 0.08066224 0.35133424 -0.05013415
000050 b1 ad 4b bc 19 46 81 3e 93 71 53 3d 96 d8 fe ba
       -0.012431548 0.25248793 0.051621985 -0.001944321
000060 53 8c a4 bc c9 81 cb 3d 9f e3 90 3d fc 5f b7 bc
       -0.020086443 0.09936864 0.07074665 -0.022384636
000070 1f c8 9d 3c 24 eb f9 bb 2f c1 34 3d 0a d2 50 3d
       0.019260464 -0.007626908 0.044129547 0.05098156
000080 23 27 e9 3d c2 0b c9 bb fa 2c 4a 3a 27 33 4e bb
       0.11384418 -0.006135435 0.00077123905 -0.0031463595
000090 f3 5e 19 3d ba ef a3 be f5 04 85 bc d2 70 55 bd
       0.037444066 -0.32018834 -0.016237715 -0.052109547
0000a0 d9 12 e5 bd ba b9 8f be 95 ee 6e 3d 5f cd cc bd
       -0.111852355 -0.28071386 0.058333 -0.10000109
0000b0 94 58 95 bd 91 2e 64 be 55 1f a3 bd a1 c3 4a 3d
       -0.072922856 -0.22283389 -0.079649605 0.049502973
0000c0 92 c8 8f 3d 1c 56 6f be 68 36 5b bd 33 66 65 3e
       0.070206776 -0.23372692 -0.053518683 0.22402267
0000d0 00 b4 a4 be 3b 76 88 be 8a 7f 84 bd 78 bc e1 bc
       -0.3216858 -0.26652703 -0.06469639 -0.02755569
0000e0 ef 94 f6 3c 94 35 87 3c 76 83 f1 bd aa 04 16 3e
       0.030100314 0.01650504 -0.11792652 0.14650217
0000f0 f8 58 a4 3b 92 51 68 3d 70 7b 83 bc 5a 13 33 be
       0.0050154887 0.056718417 -0.01605007 -0.17487851
000100 1e ee dc bc d7 0a 5f 3d 09 29 51 3d 2d 89 ae be
       -0.026969012 0.054453697 0.051064525 -0.34089032
000110 20 98 4b be ed 23 81 bd 15 6f ba bd 3a 5e 88 bb
       -0.1988225 -0.063056804 -0.091032185 -0.0041616233
000120 fe 3d b1 bd be cb 08 3d 1d 78 e4 3b 14 95 cc 3d
       -0.08654402 0.03339743 0.0069723264 0.09989372
000130 06 6c 9e be 0a 82 92 3d e5 f6 de 3d a0 91 6f be
       -0.3094179 0.07153709 0.10886935 -0.23395395
000140 95 ff 5a 3e 4c e2 9a 3e a5 b4 b6 3e f4 76 34 bc
       0.2138656 0.30250776 0.35684696 -0.011014689
000150 75 52 9e bd 71 10 c5 3b 2b f7 e5 bc 1c e2 ba 3c
       -0.07730571 0.006013923 -0.02807196 0.022812895
000160 df 2d 5b bc 0b 46 2f bb 74 64 3e bd d1 f1 8c bc
       -0.013377636 -0.002674463 -0.04648252 -0.01720515
000170 22 af 9d be 21 ff e1 bd 57 d9 dc bc 6a 6d 1f 3e
       -0.30797678 -0.1103499 -0.026959104 0.15569082
000180 cf 5c 21 3b 94 0e 17 3e 2f a1 87 be a3 7d 90 bc
       0.0024621969 0.14751655 -0.2649016 -0.017638033
000190 77 c2 7e bd 62 88 52 bd 51 3f 3f be 80 95 fa b5
       -0.062197175 -0.051399596 -0.18676497 -1.8669962e-06
0001a0 97 e0 e4 be 9d 51 5f 3d 58 43 b6 3e 6f 75 f9 3b
       -0.44702598 0.054521192 0.35598254 0.007612876
0001b0 98 8e 54 be 9e a7 e6 3b 04 2f b5 3d 2a 9e 2d 3e
       -0.2075752 0.0070390245 0.08846858 0.16954866
0001c0 22 ef 4e bc 5b bd 1d bc 58 e1 8d bd 67 51 22 3e
       -0.012630256 -0.009627665 -0.069277465 0.15851365
0001d0 b2 ba 72 bd 20 a0 1e bc 1d fd ef 3d eb 4a 1c bc
       -0.059260078 -0.009681731 0.117181994 -0.009539346
0001e0 c4 13 af bb 8e e3 26 3a 7f bc 58 bd 5d 46 a7 be
       -0.0053429324 0.0006366306 -0.05291414 -0.3267087
0001f0 11 e0 00 3c a4 23 5d 3d e3 6d 21 3d 0b bd 08 3d
       0.007865922 0.053989068 0.039411437 0.03338341

running_var f4 [128]
000000 7f 9e 7d 37 3d 2b 50 37 63 a4 6b 37 8a 73 95 37
       1.5116878e-05 1.2407833e-05 1.4045366e-05 1.7815986e-05
000010 bb 1d 92 37 4a 7e 86 37 d8 6b 50 37 5e 57 9b 37
       1.74184e-05 1.6032853e-05 1.2422875e-05 1.8518123e-05
000020 df 3c 91 37 f2 07 80 37 e2 a3 84 37 db 95 a2 37
       1.7313692e-05 1.5262489e-05 1.581194e-05 1.9381687e-05
000030 3c 99 91 37 db cf 99 37 7f fd 2d 37 b6 72 42 37
       1.7356702e-05 1.8335812e-05 1.0370625e-05 1.1590009e-05
000040 a0 16 85 37 3b d1 95 37 b7 0a 7b 37 e9 79 8a 37
       1.5865371e-05 1.7859615e-05 1.4963261e-05 1.650765e-05
000050 22 01 31 37 44 14 60 37 56 d8 81 37 7d f5 7a 37
       1.0550286e-05 1.3356159e-05 1.5478738e-05 1.4958318e-05
000060 37 63 95 37 6d 54 4c 37 1e b7 99 37 a9 83 8d 37
       1.7808385e-05 1.2179004e-05 1.8324292e-05 1.6869819e-05
000070 e0 c4 95 37 5a 3f 62 37 46 64 65 37 cc 48 81 37
       1.7853861e-05 1.34854e-05 1.367281e-05 1.5411897e-05
000080 fb 0e 8a 37 9a 8e 48 37 38 ae 75 37 95 7e 7b 37
       1.6457858e-05 1.1954131e-05 1.4643701e-05 1.4990238e-05
000090 e3 13 85 37 26 bc 6d 37 4c 13 87 37 e8 eb 67 37
       1.5864096e-05 1.41701075e-05 1.610224e-05 1.3823599e-05
0000a0 df 2d 9b 37 3d 23 4c 37 a7 9a 5d 37 3b b4 92 37
       1.84988e-05 1.2167552e-05 1.3208634e-05 1.7488483e-05
0000b0 88 83 83 37 6f a9 3c 37 5c 6a 8c 37 eb 1b 7e 37
       1.5677666e-05 1.1245123e-05 1.6738828e-05 1.514608e-05
0000c0 ff 4e 9f 37 0d 11 7b 37 2d 98 61 37 3f 2f a9 37
       1.8991062e-05 1.4964736e-05 1.3446476e-05 2.016837e-05
0000d0 ad 6f 51 37 c8 28 42 37 2e 24 41 37 67 d7 5e 37
       1.2483372e-05 1.1572796e-05 1.151212e-05 1.3282383e-05
0000e0 03 04 9f 37 01 df 66 37 62 1a 82 37 26 6c 61 37
       1.8956145e-05 1.376099e-05 1.5509493e-05 1.3436225e-05
0000f0 06 93 97 37 6d de 8c 37 97 2e 6c 37 0f 63 58 37
       1.8069066e-05 1.6792876e-05 1.4077544e-05 1.2897667e-05
000100 7b eb 7d 37 87 0b 84 37 dd 79 6e 37 bc fa 73 37
       1.5134802e-05 1.5740994e-05 1.4214279e-05 1.4542307e-05
000110 d9 9e 2e 37 29 16 54 37 df 1f 72 37 3e c5 a1 37
       1.0408193e-05 1.2641344e-05 1.4431745e-05 1.9284544e-05
000120 46 ad 81 37 65 d6 92 37 aa 7e 82 37 44 fb 3c 37
       1.5458685e-05 1.7504392e-05 1.555619e-05 1.1264176e-05
000130 4c 8e aa 37 27 ce 74 37 98 48 81 37 9f 9e 9a 37
       2.0331841e-05 1.4591532e-05 1.5411802e-05 1.8432094e-05
000140 41 c9 61 37 ce 81 6a 37 d8 f8 92 37 52 d6 55 37
       1.3457903e-05 1.3977709e-05 1.7520433e-05 1.274569e-05
000150 a6 39 50 37 68 ce 88 37 a3 f7 53 37 72 2f 84 37
       1.2411188e-05 1.6308579e-05 1.26342375e-05 1.575772e-05
000160 04 68 54 37 eb e0 98 37 30 76 54 37 21 f3 79 37
       1.2660403e-05 1.8224548e-05 1.2663702e-05 1.4898164e-05
000170 d5 e8 4a 37 0f 1f 8c 37 70 31 30 37 27 f4 96 37
       1.2094349e-05 1.6703763e-05 1.0501928e-05 1.7995086e-05
000180 bc e1 69 37 f2 1e 53 37 c7 6d 8c 37 79 f7 96 37
       1.394044e-05 1.2583785e-05 1.674042e-05 1.7996632e-05
000190 6e b7 39 37 f3 5f 8f 37 1c 90 7d 37 37 aa 54 37
       1.1069567e-05 1.7091608e-05 1.5113528e-05 1.2675816e-05
0001a0 e5 3d 8b 37 fe 61 8c 37 43 3b a3 37 ee c2 7e 37
       1.6598913e-05 1.6734932e-05 1.945871e-05 1.5184965e-05
0001b0 f1 e3 84 37 00 d0 5b 37 31 8e 65 37 bb d3 66 37
       1.584177e-05 1.3101846e-05 1.368257e-05 1.3758366e-05
0001c0 c8 46 88 37 b4 7d 57 37 e2 23 63 37 1d e4 5a 37
       1.6245423e-05 1.2844266e-05 1.3538609e-05 1.3046924e-05
0001d0 a7 6f 86 37 f3 fc 89 37 73 03 50 37 65 14 1d 37
       1.6026037e-05 1.6449461e-05 1.2398569e-05 9.362678e-06
0001e0 ac dc 74 37 8e 14 89 37 5f 93 80 37 9e c0 92 37
       1.45949125e-05 1.6341244e-05 1.5327414e-05 1.749425e-05
0001f0 9e ca 66 37 b4 0d 8f 37 80 27 37 37 31 22 62 37
       1.3756244e-05 1.705331e-05 1.0916847e-05 1.34786105e-05

weight f4 [256, 128]
000000 19 a1 19 3e 9d 56 27 3e 7b 8b 71 be ed e2 c7 3b
       0.1500286 0.16341634 -0.23588364 0.0061000497
000010 a2 a8 07 3e 3c 72 03 be c6 70 89 bd 41 80 d2 3d
       0.13247922 -0.12836546 -0.06710963 0.10278369
000020 f7 d3 5d 3b d3 2e 5a 3d 19 e7 67 be 9e 83 78 3d
       0.0033848265 0.05326731 -0.2264675 0.060672395
000030 62 d9 a8 bc 9e 1f 0c bc fb ff fa bc 5e 8c bc bd
       -0.020611469 -0.00855246 -0.03063964 -0.092064604
000040 50 30 24 3e 8d 5f a7 3d d4 1b 1c be d3 16 0b be
       0.16034055 0.08172522 -0.1524499 -0.13582925
000050 38 8e 54 3e c2 e7 90 bd 5b d6 cb 3d 94 43 93 3d
       0.20757377 -0.07075454 0.099529944 0.07190624
000060 7f 15 05 bc 9e ee 03 be 10 82 88 3c 6d ef d7 bd
       -0.008122801 -0.12883994 0.016663581 -0.10543714
000070 60 a1 db 3c f6 e4 57 bd c0 e0 69 3c 6f 0b a2 bc
       0.026810348 -0.05270859 0.014274776 -0.019780843
000080 f6 af d6 bd 9d e4 3d be ae b6 fb 3d b2 5c 05 be
       -0.10482781 -0.1854424 0.12290703 -0.13023642
000090 52 3b af be 81 63 11 3e 1b 3b 3f 3d be c8 ac bd
       -0.34224945 0.14198114 0.046687227 -0.08436726
0000a0 b6 66 0c bd 3e 45 65 3e 32 a9 1e bd da 20 9f 3d
       -0.03427764 0.22389695 -0.038735576 0.07769938
0000b0 b9 f8 68 bd 0a e7 63 be f4 91 9f bd 0b 02 41 be
       -0.056877825 -0.22256103 -0.0779151 -0.18848436
0000c0 b7 87 6c 3e 32 8e 7f 3d 40 da 7c 3d 29 ff 4a 3d
       0.23098646 0.062391467 0.061731577 0.049559746
0000d0 71 50 6f 3e f9 bd 01 3e ff f6 52 bd 84 d5 ff 3d
       0.2337053 0.12670125 -0.051505085 0.12491897
0000e0 22 5d 1c 3d ca d9 a1 bc db a5 d4 3c 7b 1d 0c 3e
       0.038174756 -0.01975717 0.025957992 0.13683121
0000f0 0a a1 2a be cc 67 63 3e 1d 27 e7 3d 4a fe 20 bc
       -0.16662994 0.22207564 0.11286757 -0.009826252
000100 52 17 83 be ba 25 87 3c 2f fe b5 bd 76 54 6c 3d
       -0.2560373 0.016497482 -0.08886372 0.057697736
000110 cc dd ff bc e2 2f fe bd 4d d4 83 3d ca c6 e3 3d
       -0.03123369 -0.12411477 0.064369775 0.111219004
000120 67 e2 ad 3c 78 2a 76 3d b8 93 df 3c ef 33 87 bd
       0.021226121 0.060099095 0.027292117 -0.066017024
000130 d4 e4 2b bd d8 54 84 be 1d b4 02 3d 2f cd e0 3d
       -0.041966274 -0.2584598 0.03191005 0.10976636
000140 0d 53 00 3d 27 93 75 be 70 eb 01 3d ed 56 5c bd
       0.031329203 -0.23981915 0.03171867 -0.053793836
000150 12 79 71 be 1d 8a 2a be 06 52 e2 bd 77 23 93 3b
       -0.23581341 -0.16654249 -0.11050801 0.0044903117
000160 da 2a 0c 3d 36 a8 3b 3d 15 a8 99 3d ac 72 26 be
       0.034220554 0.045814715 0.07502762 -0.16254681
000170 82 b6 bd bc cb 79 0d 3e a4 45 ac 3b 7a 22 1c 3e
       -0.023158316 0.13815992 0.0052573252 0.15247527
000180 3c d4 d4 3c 0d f2 78 3d e2 4a 42 be 8b 3d d4 bd
       0.025980107 0.060777713 -0.18973878 -0.10363301
000190 ef 1b 24 bc 6b 58 03 be 43 04 90 bd 1d 8f 94 3d
       -0.0100164255 -0.12826698 -0.07032063 0.07253859
0001a0 e7 27 97 3c 04 5f 03 bd 92 ed 86 bd 2d 63 40 3e
       0.018451644 -0.032073036 -0.06588282 0.18787833
0001b0 bd 3b 04 be 93 be 12 be 97 7b 25 3e 20 e7 f3 3d
       -0.12913413 -0.14330511 0.16160427 0.11909318
0001c0 a5 17 d4 3d a5 72 d1 3d f2 2d dd bd 63 17 7d 3e
       0.10356072 0.10226945 -0.10799779 0.24715953
0001d0 ff 86 08 3e e9 c7 10 be 56 b2 1a 3e 51 c5 7b bd
       0.13332747 -0.1413876 0.15107092 -0.061467472
0001e0 c6 34 3d be 44 f1 c9 3d 52 e5 fd bc d4 c8 c8 3d
       -0.18477163 0.09860471 -0.030993138 0.0980393
0001f0 21 d9 94 3d 1f 02 a2 bc a5 8f 14 3e 9f 43 54 bd
       0.072679766 -0.019776402 0.14507921 -0.0518223
000200 aa c9 5f 3d cf b7 5d bd 20 b4 13 3d 0d 5e d7 bd
       0.05463568 -0.05413037 0.036060452 -0.10515986
000210 ad 9b 24 ba d9 0d de 3d 33 02 9a bb 66 7c 07 bd
       -0.0006279301 0.10842485 -0.004699969 -0.03307762
000220 34 c6 2e bc f9 07 3e 3d 44 9a 76 be a7 d4 a3 bd
       -0.0106673725 0.046394322 -0.24082285 -0.079995446
000230 56 60 b1 3d 96 df 80 3e f9 28 5d be 92 e0 03 be
       0.08660953 0.25170583 -0.21597661 -0.12878636
000240 d1 a3 ab 3c 73 36 33 3e 58 06 19 be 37 58 92 bd
       0.020952137 0.1750124 -0.14943826 -0.07145732
000250 be 96 98 3d cb 0f b5 3d a1 54 85 bd c5 5e 0d be
       0.07450627 0.08840903 -0.06510282 -0.13805683
000260 d3 a1 e3 3c 0c 54 20 3b f1 3e 31 bc d0 bb eb bd
       0.027787125 0.0024464158 -0.010818229 -0.11510432
000270 94 9f ff 3d e1 56 27 bd 7e ee 93 bd 3c b0 37 3e
       0.12481609 -0.04085434 -0.07223223 0.17938322
000280 4f 02 3e 3d c1 16 c7 bd a4 42 39 be 1c ac a3 bd
       0.04638892 -0.09721137 -0.18091828 -0.07991812
000290 cd 85 64 bd 2b 33 1b be 65 4c 7b bc a0 31 ba bd
       -0.055791665 -0.15156238 -0.015338038 -0.090914965
0002a0 dc d1 c2 bd af cc ab 3d 49 e3 00 be f0 72 94 be
       -0.09512684 0.0838865 -0.12586702 -0.2899394
0002b0 52 fd 05 3d 3c d2 f1 bb f2 e2 f5 3d 6e f2 2e 3e
       0.03271229 -0.007379798 0.12006177 0.17084667
0002c0 df a2 af 3d 4e 0e 81 3e ee 17 18 3e 2f e0 38 be
       0.08575987 0.25206226 0.14852878 -0.18054269
0002d0 1f 4c 3b 3e 65 04 aa 3c 13 14 07 3e e8 11 56 be
       0.18290757 0.020754049 0.13191251 -0.20905268
0002e0 4f 24 52 3c 66 97 38 3d de 5a c3 bd 13 71 91 3d
       0.012826039 0.04506626 -0.09538816 0.07101645
0002f0 a9 32 09 be ef e5 40 3e ab 30 fc bc 4c eb 32 3d
       -0.13398232 0.18837713 -0.030784925 0.043681428
000300 29 fc 9d bd 13 a7 bf bd 2c ec 31 bc ce fd fe bc
       -0.07714111 -0.09358039 -0.01085953 -0.031126883
000310 28 cd ba bb ed 2f 69 bd ff 7f 39 3d 56 05 f0 bd
       -0.005700726 -0.05693047 0.045288082 -0.11719768
000320 e2 f6 5c bd 7f 08 6b bd 50 5a 35 be 9f 7d 96 3d
       -0.053946383 -0.05738115 -0.17710233 0.07348179
000330 02 d2 4e bd 97 4e f5 3d 89 31 08 bd 98 48 21 3e
       -0.050493248 0.119778804 -0.033250365 0.15750349
000340 9a 34 08 3d f2 03 39 be e5 7c bb 3c c1 a8 c3 bc
       0.03325329 -0.18067911 0.022886703 -0.02388418
000350 d3 8c 61 3e 12 c4 fa bb d7 38 18 bd fc 3d 71 bc
       0.22026376 -0.007652768 -0.03716358 -0.014724251
000360 50 63 9b bd f9 43 f0 bd 5b a3 28 bd ec e8 08 3d
       -0.07587302 -0.11731715 -0.041171413 0.033425257
000370 d4 8f 31 3c 3e 7e 20 3e 57 fb 96 3b 25 65 b2 bd
       0.010837514 0.15673158 0.0046075988 -0.08710698
000380 f0 a9 94 bd da 26 aa bc d9 0a 44 3e 84 8c 5f be
       -0.072589755 -0.020770479 0.19144763 -0.21830946
000390 22 30 f5 3d 8e 5e 12 3d a5 de d2 bd 6c d4 3f bd
       0.11972071 0.035734706 -0.10296372 -0.04683344
0003a0 f8 93 93 3e 4b ac 53 bd 14 90 05 be 2b e7 2b 3e
       0.2882383 -0.051677983 -0.13043243 0.16787402
0003b0 03 bd b0 bc 0f 61 2d 3d 20 23 b3 bc 8b ec 3c bb
       -0.021574503 0.04232889 -0.021867335 -0.0028827514
0003c0 3a a2 19 be d4 a0 a7 bd f0 34 33 3d 65 5a f4 3d
       -0.15003291 -0.081849724 0.043751657 0.11931304
0003d0 c8 41 8d 3c 3f 4d da bd 5a 08 89 3d 69 26 06 bd
       0.017243281 -0.10659265 0.06691046 -0.032751475
0003e0 77 37 ac 3d 0f 9f 9e 3e 28 43 98 bd ac 72 a7 bd
       0.084090166 0.30980727 -0.07434684 -0.08176169
0003f0 d2 9f 43 3d 52 b9 4e bd 14 0f 91 be ce b3 8b 3d
       0.04775984 -0.050469704 -0.28331816 0.068214044

bias f4 [256]
000000 e4 94 63 3d c1 e2 0e 3d 77 0e 9f 3d c8 20 77 bd
       0.055561915 0.034884218 0.07766431 -0.060333997
000010 67 d5 27 3d 79 1e 29 bc 26 65 f6 3c a4 ad c0 bd
       0.040975 -0.010322207 0.030077528 -0.09408119
000020 26 91 9c 3b 3f 53 37 bc a1 cc 26 3d 2f 52 1c bc
       0.004778045 -0.011189281 0.040722493 -0.0095410785
000030 b5 9c e1 bb ae 66 89 bc 95 a0 d8 bc a5 e2 c4 bd
       -0.006885136 -0.016772594 -0.026443759 -0.096135415
000040 2f 5a 69 3d b0 07 89 bd 10 b8 bd bd 69 d0 76 bd
       0.05697077 -0.066909194 -0.09263623 -0.06025735
000050 4a ea 0d bd ac c0 85 bd 2f 13 9c bd 86 ae 5d 3d
       -0.034647264 -0.0653089 -0.076208465 0.054121517
000060 54 54 e6 bc ee 3a 09 bd 26 8e 0c bd cb 1b d3 3c
       -0.028116383 -0.033503465 -0.03431525 0.025770089
000070 25 b6 e4 3c 3f c2 6f 3d 8a 9f a7 3c 9d c6 f4 bb
       0.027918885 0.058534857 0.020461816 -0.0074699656
000080 e3 db f5 3c 41 ba 15 3d 4d a4 82 bd 1a d3 9e bd
       0.030012077 0.03655458 -0.06378994 -0.07755108
000090 65 4e 90 3b 8f 67 fa bc fc 20 97 bc 05 66 32 bc
       0.0044038766 -0.030566959 -0.018448345 -0.010888581
0000a0 3d 48 3d 3b 42 e6 9e 3d 5c 71 8b 3c e4 31 28 bd
       0.0028882169 0.07758762 0.017021827 -0.041063204
0000b0 e6 cb 5f ba 88 b1 39 3d dd 74 82 bd f0 ab 04 bd
       -0.0008537158 0.045335323 -0.06369946 -0.032390535
0000c0 52 bf c5 bd 6d 8f b3 3a 75 3c 9c bd 32 96 73 3d
       -0.09655632 0.001369936 -0.07628719 0.05946941
0000d0 c4 d5 d4 bb d0 0a 87 bc 22 15 fe 3c 46 41 69 bd
       -0.0064952094 -0.016484648 0.031015936 -0.056947015
0000e0 9d 70 90 bd 77 68 b9 3d 1a a6 c1 3d 6c 3c 01 bd
       -0.07052729 0.09053128 0.094555095 -0.031551763
0000f0 a3 29 45 bc 6d ef 75 bc be 7b b3 bc eb 91 bd 3b
       -0.012033853 -0.015010697 -0.02190959 0.005785217
000100 b2 c6 7d 3b d9 25 1f bd 28 95 44 3d db 5c 36 bd
       0.0038723168 -0.038854454 0.04799381 -0.044522148
000110 0b 86 42 3d bc 41 d2 bd d8 85 45 bd 3a 40 75 3c
       0.047491115 -0.10266444 -0.048223346 0.014968926
000120 17 05 65 bd 29 d3 91 bd 15 57 cc b9 9c 9b 9f 3d
       -0.055913057 -0.07120354 -0.00038974793 0.07793352
000130 a1 b7 49 3d d0 ec 27 3b ad 0a 55 bd c6 8f 52 bd
       0.049247388 0.002562333 -0.052012134 -0.051406644
000140 a6 d6 9e bd d9 52 b9 bd dd 9e 34 bd 37 a8 8d bd
       -0.07755785 -0.09049005 -0.044096816 -0.0691685
000150 bf 67 95 3c 0a 79 05 bd 54 12 b5 3d 42 f0 54 3d
       0.018237947 -0.032586135 0.088413864 0.05198694
000160 50 88 45 bd d6 60 ac 3d f5 88 d5 3c 95 80 0d bd
       -0.0482257 0.084169075 0.026066283 -0.034546454
000170 b9 ca f8 3c e3 5a 66 bd fe fc 8d 3c 41 39 c2 bd
       0.030370103 -0.05623902 0.01733255 -0.094835766
000180 80 ad a6 bd d8 7f 82 3d 7c 50 ed bb 55 58 1b 3d
       -0.08138561 0.063720405 -0.0072422605 0.037926037
000190 d6 29 12 bd 47 b4 a9 bd 8c ac 94 bd 1a ac 1b 3d
       -0.03568443 -0.08286338 -0.07259473 0.038005926
0001a0 52 f7 9d 3d af ee a1 3c 98 75 27 3d 5e e7 bf bc
       0.07713188 0.019767134 0.04088363 -0.023425754
0001b0 9d ac ce 3d 3e 22 f9 3b 5f e5 86 bd 47 d8 1f 3d
       0.10091517 0.007602959 -0.06586718 0.039024618
0001c0 ff 44 be bc 45 e1 c7 3b d5 7e 9f bd ba f6 d3 3b
       -0.02322626 0.0060998523 -0.07787863 0.006468621
0001d0 71 38 ac bb ed 10 ab bc 92 33 5f 3b 55 7b 24 bd
       -0.005255752 -0.020882094 0.0034057838 -0.04015668
0001e0 f8 e6 c6 3b 6f d5 c7 3c 8c 36 81 3d 38 12 ae 3c
       0.006070014 0.024393765 0.06309232 0.021248922
0001f0 0b bd 3f bd a9 67 12 3c 73 69 06 bd f9 1b 1e bc
       -0.046811145 0.008935847 -0.032815408 -0.009650224
000200 5a 51 aa bd d1 06 be 3c 82 1c c0 bd c3 3e 50 bd
       -0.08316298 0.02319661 -0.093804374 -0.050841104
000210 69 30 be bc 2e f3 a9 bd 12 fe 52 bd f6 ca 7a 3d
       -0.023216443 -0.08298336 -0.05151183 0.061228715
000220 61 a6 48 3d dc e8 5d 3d e7 c7 8b bd e1 46 36 bd
       0.048986796 0.05417715 -0.06825238 -0.04450119
000230 1a c6 1d bc 8b a3 4e 3c 0f 9d 83 bd bd 03 38 3d
       -0.009629751 0.012612234 -0.06426441 0.04492544
000240 17 d6 55 bd 19 2e 89 3d 5a ca 84 bd 1a 08 6f bc
       -0.052206125 0.066982456 -0.06483908 -0.014589334
000250 34 3f 16 3b 30 89 14 bd 38 13 c6 bc f5 a8 64 3c
       0.0022925856 -0.036263645 -0.024179086 0.013956298
000260 8a 3b 7a 3d 36 3e 9b bd 18 f9 99 bd 87 0e 9c 3d
       0.061091937 -0.07580225 -0.07518214 0.07619958
000270 29 d0 a3 bc 83 fb 68 bc 37 4b 9d bd 2c b3 2d 3d
       -0.01999672 -0.014220121 -0.07680362 0.0424072
000280 e2 27 71 3d 63 36 9a 3d 0f 91 17 bd ad 8c 2d bd
       0.058875926 0.07529905 -0.037003573 -0.042370487
000290 d7 85 9c bc 32 33 5a bd 7a b9 a0 bd c5 24 9b bd
       -0.019106789 -0.05327148 -0.07847877 -0.075753726
0002a0 9c 32 15 bd 1c ab 65 bd 5d a1 ad bc ac b7 a6 bd
       -0.036425218 -0.056071386 -0.021195108 -0.081405014
0002b0 27 13 95 bd 52 38 fa bc e2 9c dd 3c ad 08 ac bd
       -0.07279044 -0.030544434 0.027052347 -0.08400092
0002c0 83 37 9a 3c 4a 1c a9 bb 4d 54 0a bd b5 99 d5 3c
       0.018825298 -0.005160843 -0.0337718 0.02607427
0002d0 cf bb 3a 3c 3f 6c e9 3c 9c 15 87 bc da 29 5d 3d
       0.011397316 0.028493999 -0.016489796 0.05399499
0002e0 bb 7a a5 3d 71 77 87 bd 84 2f ab 3d df f9 af bd
       0.080800496 -0.066145785 0.08358672 -0.08592581
0002f0 aa fa 5e bd 70 3a 7b 3d b8 4e 82 bd 93 ff 3d 3d
       -0.05443827 0.061335027 -0.06362671 0.046386313
000300 60 59 a7 bd 54 27 91 3d af 94 b9 bc 86 8b 92 3d
       -0.08171344 0.07087579 -0.022653906 0.07155518
000310 50 7d 21 bd 25 ec 31 3d 84 7d 82 bd e4 b9 90 bd
       -0.039426148 0.043438096 -0.063715965 -0.07066706
000320 6c f8 89 bd fc 48 1d 3b e8 19 8c 3d 06 c2 b1 bb
       -0.06736836 0.00239998 0.06840879 -0.0054247407
000330 28 8e 9a 3d d8 4b a1 bd a6 86 74 bd 0f 0e 1f 3c
       0.075466454 -0.07875794 -0.059698723 0.009707942
000340 a0 7e 7d bd 3a cc e9 bc c1 cc ac bd a9 ba f1 3c
       -0.061888337 -0.028539766 -0.08437491 0.029507952
000350 6f 18 48 bd 4d 31 2f 3d ae a7 62 3c d3 b0 09 3d
       -0.048851427 0.042771626 0.013833923 0.0336159
000360 6e 91 7a bd 6c d3 2d bd ec fe 63 3d 64 a8 b4 3d
       -0.06117385 -0.042437956 0.055663034 0.088211805
000370 69 9c 6f 3d de 7a e9 3b 57 4a 83 3d a3 7b de bd
       0.058498774 0.0071252426 0.064106636 -0.108634256
000380 ae b8 91 bd 90 47 2b bc 08 e9 3f bd ce 8e b7 bb
       -0.07115303 -0.010454074 -0.046853095 -0.0056017404
000390 f4 00 97 3d 2e 35 a7 bd 38 d2 87 3a 94 87 35 3d
       0.07373229 -0.0816444 0.0010362333 0.04431875
0003a0 63 79 eb 3c 02 ff 4f bc 7d 58 24 bd 9e 7a b4 3d
       0.028744405 -0.012695076 -0.04012345 0.0881245
0003b0 75 15 ba 3b af 80 13 bd 70 31 b4 3c b9 8a a7 bc
       0.0056788274 -0.036011394 0.02199623 -0.02045189
0003c0 5a 29 5c 3d ac c7 48 bc f7 73 08 3d 6b 13 e1 3d
       0.053750373 -0.012254637 0.033313718 0.10990032
0003d0 64 43 a7 3d d5 d6 db bc 82 6a a0 3d 8a 2a 4d 3d
       0.081671506 -0.026835838 0.07832815 0.050089397
0003e0 74 c6 75 3c fe cf 5b 3d 88 ec 45 3d 7c 92 ad bd
       0.015000928 0.053665154 0.048321277 -0.08475205
0003f0 ed 19 9a 3c 57 9e 48 bd 37 c9 cb bc 68 d7 ba bd
       0.01881119 -0.04897913 -0.02487622 -0.09123117

weight f4 [256]
000000 03 34 82 3f 5f f1 85 3f 1e 40 68 3f 60 1a 58 3f
       1.0172123 1.0464286 0.90722835 0.84415245
000010 f4 89 43 3f a9 ec 95 3f cc ec 8a 3f ff 31 5f 3f
       0.76382375 1.1712848 1.0853515 0.87185663
000020 2d c0 6a 3f ae 33 71 3f ca d2 6d 3f a5 14 81 3f
       0.91699487 0.9421948 0.92899764 1.0084425
000030 87 8b 7b 3f da d8 7a 3f 18 3a 93 3f 9e 80 85 3f
       0.98259777 0.9798714 1.1502104 1.0429876
000040 1b ae 73 3f 26 07 86 3f bb 37 8f 3f 4a ee 82 3f
       0.9518754 1.0470932 1.1188883 1.022897
000050 95 25 86 3f c3 44 70 3f ec 59 7f 3f b0 16 89 3f
       1.0480219 0.9385492 0.99746585 1.0710049
000060 d2 50 75 3f ef e7 8e 3f 43 93 3d 3f ad 7a 5a 3f
       0.95826447 1.116453 0.7405283 0.8534344
000070 0b af 93 3f 62 06 70 3f 85 7a 71 3f cf 87 72 3f
       1.1537794 0.9375974 0.94327575 0.9473848
000080 b4 e5 7d 3f 94 76 6a 3f 0c 9b 87 3f 77 82 84 3f
       0.99178624 0.91587186 1.0594192 1.0352315
000090 13 f9 6a 3f 83 bf 88 3f 14 f6 83 3f c3 f1 8d 3f
       0.9178631 1.0683445 1.0309472 1.1089405
0000a0 99 ac 82 3f 8f f4 92 3f e4 71 85 3f 5d 37 80 3f
       1.0208923 1.1480883 1.0425382 1.0016896
0000b0 7d be 61 3f 7b 91 82 3f c1 62 66 3f ce c8 5d 3f
       0.8818129 1.0200647 0.89994437 0.8663453
0000c0 26 ea 89 3f 96 87 86 3f 97 11 85 3f eb 0a 85 3f
       1.0774581 1.0510128 1.0395993 1.0393957
0000d0 1f ed 8e 3f b5 03 70 3f 49 0f 86 3f c1 85 74 3f
       1.1166114 0.93755656 1.0473415 0.9551659
0000e0 c5 3b 75 3f 82 dd 8e 3f 96 da 49 3f 78 7e 81 3f
       0.95794326 1.1161349 0.7884916 1.011672
0000f0 d5 c2 8a 3f c5 68 76 3f 0d 3f 7a 3f 0c 5a 50 3f
       1.0840708 0.96253616 0.9775246 0.813874
000100 83 f9 88 3f 76 68 78 3f 9d 79 51 3f b8 37 83 3f
       1.0701145 0.97034395 0.8182619 1.0251379
000110 d3 9c 7a 3f 67 9f 78 3f f1 0b 65 3f a3 6f 77 3f
       0.97895545 0.9711823 0.89471346 0.9665472
000120 d5 de 86 3f ea bf 82 3f 76 91 81 3f c3 90 5a 3f
       1.0536753 1.0214818 1.0122516 0.8537714
000130 cd 60 85 3f 60 fa 86 3f da ee 8d 3f 22 cd 90 3f
       1.0420166 1.0545158 1.1088517 1.1312602
000140 24 60 7b 3f ba f3 8d 3f 93 ee 7f 3f ef 27 7f 3f
       0.98193574 1.1090004 0.9997341 0.9967031
000150 3a b0 6e 3f d6 b1 5b 3f 40 a6 86 3f 0b 8a 82 3f
       0.9323765 0.8581823 1.0519485 1.0198377
000160 88 e1 7a 3f a4 d2 8a 3f 85 78 79 3f 6a 3c 93 3f
       0.98000383 1.0845532 0.97449523 1.1502812
000170 67 4b 71 3f 97 3e 85 3f e7 39 8b 3f f2 3d 47 3f
       0.9425568 1.0409726 1.0877045 0.77828896
000180 ed ab 71 3f b3 57 8a 3f f6 3f 8a 3f 80 d6 85 3f
       0.9440296 1.0808014 1.0800769 1.0456085
000190 bf 7d 74 3f 07 c7 72 3f a8 a0 8d 3f 5b d5 87 3f
       0.95504373 0.9483494 1.1064653 1.0611986
0001a0 ef da 8b 3f b9 1c 83 3f 57 1c 84 3f 3c 50 83 3f
       1.0926188 1.024314 1.0321149 1.025886
0001b0 c0 6c 81 3f 37 ec 8c 3f 4f d6 8d 3f 43 37 69 3f
       1.0111313 1.1009587 1.1081027 0.9109995
0001c0 cf d7 8a 3f 19 84 8f 3f 2b aa 78 3f d8 76 7c 3f
       1.084711 1.1212188 0.97134656 0.9861884
0001d0 0a 13 82 3f 04 9b 77 3f 14 f6 7d 3f 66 5d 85 3f
       1.016206 0.9672091 0.9920361 1.0419128
0001e0 bf 2e 90 3f e5 a2 74 3f 7c 03 84 3f ae 7f 7e 3f
       1.1264266 0.9556106 1.0313563 0.99413574
0001f0 5b 0a 50 3f 83 cc 71 3f 70 ef 8e 3f 97 3c 85 3f
       0.812658 0.94452685 1.116682 1.0409116
000200 20 c7 80 3f 38 30 82 3f d6 26 80 3f e1 39 8f 3f
       1.0060768 1.0170965 1.0011852 1.1189538
000210 d5 b2 89 3f ba ed 8c 3f b7 82 71 3f c9 dc 39 3f
       1.07577 1.1010048 0.9434008 0.72602516
000220 6e aa 5a 3f a2 a7 80 3f 1f 83 87 3f 64 aa 93 3f
       0.85416305 1.0051157 1.058689 1.1536374
000230 5b 17 77 3f 88 da 7a 3f 3e aa 8a 3f 6b fd 5b 3f
       0.9652001 0.979897 1.0833204 0.8593356
000240 33 06 90 3f 45 f7 73 3f 37 e5 74 3f ed d7 87 3f
       1.1251892 0.9529918 0.95662254 1.061277
000250 8d 20 5a 3f 95 3a 85 3f db 93 59 3f ef 30 8d 3f
       0.8520592 1.0408503 0.84991235 1.1030558
000260 ef 31 87 3f e5 73 83 3f c3 65 65 3f fd 63 5e 3f
       1.0562114 1.0269743 0.896084 0.8687132
000270 6c fa 85 3f 65 a4 8c 3f a6 0d 4d 3f d2 c2 80 3f
       1.0467048 1.0987669 0.8009895 1.0059454
000280 f0 5a 8f 3f b8 37 5f 3f a2 ed 88 3f 3c 61 81 3f
       1.1199627 0.87194395 1.069752 1.0107799
000290 32 6e 70 3f 3b 73 72 3f 07 55 75 3f 23 af 75 3f
       0.93918145 0.9470708 0.95832866 0.9597036
0002a0 54 4f 7a 3f 54 8a 7d 3f 29 f8 73 3f 25 cc 5b 3f
       0.97777295 0.99039197 0.9530054 0.85858375
0002b0 95 8b 87 3f 45 b4 7d 3f 25 bb 8a 3f 43 0f 85 3f
       1.0589472 0.99103194 1.0838362 1.0395283
0002c0 66 8c 7d 3f 8b 7f 89 3f cf f1 6a 3f 2d e2 56 3f
       0.99042356 1.0742048 0.9177522 0.83938867
0002d0 28 a9 83 3f 00 89 8b 3f 2b 72 84 3f 7a d7 81 3f
       1.0285997 1.0901184 1.0347341 1.0143883
0002e0 60 17 83 3f fa 2a 8c 3f 3d bd 88 3f 77 62 82 3f
       1.0241508 1.0950615 1.0682751 1.0186299
0002f0 0c ac 90 3f da a1 74 3f 74 d4 6e 3f ae f7 83 3f
       1.1302505 0.95559466 0.9329293 1.0309961
000300 28 6c 72 3f f6 f7 87 3f 95 24 5c 3f 91 b1 6e 3f
       0.94696283 1.0622547 0.8599332 0.93239695
000310 ac ac 88 3f 16 be 8a 3f b4 67 8b 3f 51 25 88 3f
       1.0677695 1.083926 1.0891023 1.0636388
000320 c7 87 6f 3f ad 68 88 3f e2 0b 89 3f d2 4a 70 3f
       0.93566555 1.0656945 1.0706751 0.93864167
000330 ba aa 79 3f 02 a4 89 3f 0b 30 69 3f be 2c 87 3f
       0.97526133 1.0753176 0.9108893 1.0560529
000340 3b 11 83 3f 08 f3 78 3f da bb 3d 3f 90 14 5d 3f
       1.0239633 0.97245836 0.74114764 0.863595
000350 24 61 82 3f 2d 43 54 3f 93 d5 8a 3f 9d 54 6c 3f
       1.0185895 0.82915 1.0846428 0.9231661
000360 c0 5d 99 3f 6b be 89 3f c5 2d 43 3f 9d 7f 73 3f
       1.1981735 1.0761236 0.76241714 0.951166
000370 13 e6 60 3f ee 21 73 3f c3 d6 71 3f 1e d4 74 3f
       0.87851065 0.9497365 0.94468325 0.95636165
000380 1f b6 84 3f b2 02 8f 3f 69 ca 87 3f 0f 5a 7d 3f
       1.0368079 1.1172698 1.0608646 0.98965544
000390 25 bd 89 3f 05 c6 73 3f 3b f8 5d 3f e2 fc 89 3f
       1.0760847 0.9522403 0.86706895 1.0780299
0003a0 04 e5 77 3f e3 27 87 3f 71 c2 94 3f fa 0d 46 3f
       0.96833825 1.0559047 1.1621839 0.77365077
0003b0 16 cd 67 3f 11 ee 81 3f 7e c9 75 3f 59 31 7f 3f
       0.9054731 1.0150777 0.9601058 0.99684674
0003c0 da 9e 8d 3f 16 9d 85 3f 96 92 75 3f 01 43 8b 3f
       1.1064103 1.0438564 0.959268 1.0879823
0003d0 d5 7e 64 3f 52 8a 8d 3f 6e 39 76 3f 4b a9 6a 3f
       0.8925603 1.1057837 0.9618138 0.9166457
0003e0 79 e3 87 3f 10 91 84 3f 47 ed 89 3f 6c 22 91 3f
       1.0616294 1.035677 1.0775536 1.133863
0003f0 a9 10 8d 3f 60 19 88 3f b1 3f 6f 3f 28 28 82 3f
       1.1020709 1.0632744 0.9345656 1.0168505
